generative_inpaintingv2/checkpoint/contextual.tflite (tflite, 691456 bytes, 13 tensors)

model/sconv2/BiasAdd/ReadVariableOp/resource f2 [96]
0.02034 -0.0953 -0.03525 -0.02834 0.02487 -0.03038 0.00748 0.01125
-0.005363 -0.1084 0.08636 -0.02654 0.11597 -0.00121 0.01282 -0.01113
0.015434 -0.05386 -0.01752 0.0339 0.019 0.01132 -0.006386 0.02507
0.01718 -0.01505 -0.0652 -0.06134 -0.0899 -0.0627 -0.03137 0.02571
0.10754 0.005524 -0.08203 0.0815 -0.01072 0.1583 0.0381 -0.0001494
0.08344 0.4268 -0.065 0.01005 -0.06192 -0.06726 -0.04272 0.03616
-0.01804 -0.0171 -0.02582 -0.0825 0.02185 -0.010086 -0.0723 0.0009365
-0.04065 -0.09814 -0.03586 -0.0509 0.03436 -0.04123 -0.01816 0.0524
0.0404 -0.01192 -0.035 0.07434 -0.07996 -0.02003 -0.06616 0.4944
-0.01613 0.1251 -0.02385 -0.02173 0.00619 -0.02826 0.01778 0.04526
0.05463 -0.04633 0.00909 0.03708 0.01121 -0.06903 0.0937 0.05563
0.001907 0.01569 0.03403 -0.014534 0.00587 -0.0324 -0.11523 -0.04846
00000000: 3525 19ae 83a8 41a7 5e26 c7a7 a91f c321
00000010: 7e9d f0ae 872d cba6 6c2f f594 9022 b3a1
00000020: e723 e5aa 7ca4 5728 dd24 cc21 8a9e 6b26
00000030: 6624 b5a3 2cac daab c1ad 03ac 04a8 9526
00000040: e22e a81d 40ad 372d 7da1 1131 e028 e588
00000050: 572d d436 29ac 2521 edab 4eac 78a9 a128
00000060: 9ea4 61a4 9ca6 48ad 9825 2aa1 a1ac ac13
00000070: 34a9 48ae 97a8 84aa 6628 47a9 a6a4 b52a
00000080: 2c29 1aa2 7ba8 c22c 1ead 21a5 3cac e937
00000090: 21a4 0130 1ba6 90a5 571e 3ca7 8d24 cb29
000000a0: fe2a eea9 a720 bf28 bd21 6bac ff2d 1f2b
000000b0: d017 0424 5b28 71a3 031e 26a8 60af 34aa

model/sconv1.mask_conv2d1/depthwise f2 [1, 5, 5, 96]
-0.01913 -0.09863 -0.2037 0.012955 0.3796 -0.06915 0.0526 0.0661
-0.08527 0.0143 -0.007412 0.01677 -0.1381 -0.0839 -0.0369 -0.02562
-0.04645 0.03915 0.1843 -0.002916 -0.0139 -0.0792 0.12396 -0.0838
0.371 0.05414 -0.011986 0.0995 0.1152 0.0521 -0.1108 0.05576
-0.1764 -0.10254 -0.0334 -0.2225 0.0623 0.04535 0.065 0.3008
-0.0994 0.073 -0.10535 -0.1814 0.127 -0.162 0.09314 0.0565
-0.05118 0.1764 0.1818 -0.0736 -0.06354 -0.05524 -0.2761 -0.2751
0.42 0.11414 -0.005928 -0.293 -0.05295 -0.02036 0.009636 -0.154
0.06836 -0.245 -0.1506 0.03323 -0.03967 -0.2349 0.05286 -0.0803
0.2578 0.03265 0.089 -0.04495 0.0729 -0.0178 0.0982 0.1048
-0.0195 0.01196 0.06744 -0.00010204 0.00482 0.04645 0.02403 -0.05844
0.0638 -0.01181 0.3135 -0.0362 0.1642 0.05676 -0.04785 0.083
-0.03078 -0.06396 0.01256 -0.0219 0.0885 -0.04822 0.09235 0.06415
-0.1405 0.03925 -0.003536 -0.02657 -0.1344 -0.04712 0.02318 -0.0797
-0.01701 0.0422 0.02312 0.02359 -0.09924 0.0558 0.0902 -0.1729
0.292 0.0315 0.01387 0.0765 0.0762 0.10516 -0.0933 0.04037
-0.0654 -0.05283 -0.0356 -0.1477 -0.05756 0.01831 0.0845 0.347
-0.04037 0.00752 -0.1249 -0.07806 0.1138 -0.10657 0.0707 0.05484
0.001667 0.139 0.1714 -0.2148 -0.0723 0.00981 -0.1875 -0.2166
0.4702 -0.02809 -0.1019 -0.2554 -0.0539 -0.001745 -0.0866 -0.1393
-0.1062 -0.3313 -0.1635 0.07214 -0.0294 -0.02623 0.008064 0.0324
0.003778 -0.02702 -0.1094 -0.072 0.08044 0.0359 0.1093 0.07117
0.02676 0.00993 0.0445 -0.02483 0.02509 0.11127 0.0429 -0.04672
0.0593 0.013626 0.1869 -0.03156 0.2004 -0.09674 0.0777 0.02449
-0.0612 -0.0691 0.05716 -0.01936 0.0798 -0.0803 0.08325 0.09814
-0.3918 0.010796 0.02328 -0.05374 -0.0745 -0.05594 -0.0272 -0.04608
0.04926 0.00541 0.05038 -0.0446 0.1109 0.05334 0.137 0.01356
0.2007 0.07117 -0.0852 0.02817 0.1455 0.0427 -0.0708 0.1218
-0.07635 -0.03568 -0.0755 -0.07837 0.001775 0.05923 0.0808 0.3262
0.002995 0.03925 -0.08563 -0.0269 0.1401 0.03647 0.01502 0.05096
0.007057 0.0618 0.1494 -0.1189 -0.0893 0.03366 -0.0882 -0.194
0.4084 -0.08234 0.008995 -0.1852 -0.01548 -0.01837 -0.2493 -0.08923
00000000: e6a4 50ae 85b2 a222 1336 6dac bc2a 3b2c
00000010: 75ad 5223 979f 4b24 6bb0 5fad b9a8 8fa6
00000020: f2a9 0329 e631 f999 1ea3 12ad ef2f 5dad
00000030: f035 ee2a 23a2 5e2e 5f2f ab2a 17af 232b
00000040: a5b1 90ae 46a8 1fb3 f92b ce29 292c d034
00000050: 5dae ac2c beae ceb1 1030 2fb1 f62d 3b2b
00000060: 8daa a531 d131 b6ac 11ac 12ab 6bb4 67b4
00000070: b836 4e2f 129e b0b4 c7aa 36a5 ef20 eeb0
00000080: 602c d7b3 d2b0 4128 14a9 84b3 c42a 24ad
00000090: 2034 2e28 b22d c1a9 aa2c 8fa4 492e b52e
000000a0: fea4 2022 512c b086 f01c f229 2726 7bab
000000b0: 152c 0ca2 0435 a2a8 4131 442b 20aa 502d
000000c0: e1a7 18ac 6e22 9ba5 aa2d 2caa e92d 1b2c
000000d0: 7fb0 0629 3e9b cda6 4db0 08aa ef25 1aad
000000e0: 5ba4 6729 eb25 0a26 5aae 242b c62d 88b1
000000f0: ac34 0828 1a23 e52c e02c bb2e f9ad 2b29
00000100: 30ac c3aa 8fa8 bab0 5eab b024 682d 8d35
00000110: 2ba9 b31f feaf ffac 482f d2ae 862c 052b
00000120: d416 7330 7c31 e0b2 a1ac 0621 00b2 eeb2
00000130: 8637 31a7 86ae 16b4 e6aa 2697 8bad 75b0
00000140: ccae 4db5 3bb1 9e2c 87a7 b7a6 2120 2628
00000150: bd1b eba6 00af 9cac 262d 9828 ff2e 8e2c
00000160: da26 1621 b229 5ba6 6c26 1f2f 7e29 fba9
00000170: 972b fa22 fb31 0aa8 6a32 31ae f92c 4526
00000180: d5ab 6cac 512b f5a4 1b2d 24ad 542d 482e
00000190: 45b6 8721 f625 e1aa c5ac 29ab f7a6 e6a9
000001a0: 4e2a 8a1d 732a b5a9 192f d42a 6230 f122
000001b0: 6c32 8e2c 74ad 3627 a830 7729 88ac cc2f
000001c0: e3ac 91a8 d5ac 04ad 4517 952b 2c2d 3835
000001d0: 221a 0629 7bad e3a6 7c30 ab28 b123 862a
000001e0: 3a1f e92b c830 9caf b7ad 4f28 a5ad 35b2
000001f0: 8936 45ad 9b20 edb1 eda3 b4a4 fab3 b6ad

model/sconv1.mask_conv2d2/Conv2D f2 [96, 1, 1, 96]
0.0329 0.0802 -0.1041 -0.02779 0.1122 0.1417 -0.1068 0.04623
0.1864 -0.08875 -0.01852 -0.06573 0.1156 0.08484 -0.0177 -0.00865
-0.1092 -0.0963 0.065 -0.0828 0.04245 0.0464 0.07733 -0.0799
0.1748 0.0749 -0.003275 -0.1162 0.0913 0.1401 0.1271 -0.00238
0.1819 0.05365 0.0702 -0.02924 0.04742 -0.04974 -0.05295 -0.01723
0.0584 -0.07025 0.011925 -0.0688 0.01441 -0.1315 -0.02986 0.09564
0.03976 -0.1527 0.09186 0.11383 0.0093 -0.095 -0.01648 0.02425
-0.236 0.2062 -0.01828 -0.1274 0.0813 -0.08887 -0.0986 0.0819
-0.08746 0.04407 0.1362 0.03522 -0.03146 -0.003166 0.1605 -0.03293
-0.007168 -0.1567 0.1205 0.11487 -0.04214 -0.0749 0.03818 -0.09393
-0.01889 0.01709 0.02917 0.04828 -0.00671 -0.04767 0.000806 0.04312
-0.10284 -0.03546 0.1525 0.1021 -0.078 -0.3281 0.03723 0.010086
-0.01329 -0.00588 0.1273 -0.02335 0.1392 -0.01749 -0.03708 -0.02487
0.01994 -0.1576 -0.01567 0.03223 0.0915 0.0426 0.013954 -0.01817
-0.0267 -0.1926 0.0732 -0.0595 -0.01772 -0.0645 -0.2029 -0.01359
0.1543 0.0887 0.02473 -0.0996 0.1355 0.04675 0.07007 0.05548
0.1671 0.0298 -0.003508 0.238 -0.06805 -0.0856 -0.0752 -0.07623
-0.06305 -0.0668 -0.11237 -0.0943 0.01671 0.2761 -0.04385 0.04877
0.01917 -0.0936 0.1431 0.2212 0.0794 -0.06055 -0.0179 0.1826
-0.2347 0.0604 -0.0133 -0.1627 0.0929 -0.03317 0.05423 0.0838
0.11743 -0.0306 0.04135 -0.02023 0.0416 0.0839 0.1473 0.1523
0.05133 0.01152 -0.0109 0.04016 -0.10535 0.04062 -0.0651 -0.1353
-0.0514 -0.1622 -0.003117 0.05505 0.02756 -0.04828 -0.003435 0.1019
0.06506 0.02773 0.05838 0.08545 -0.0795 0.1204 0.01776 0.01732
0.02147 -0.0883 -0.094 0.03278 -0.002625 -0.0689 -0.003414 -0.04306
0.05164 0.02394 -0.07184 0.05417 0.02603 -0.06195 -0.06586 -0.05136
-0.001007 0.04007 0.05817 0.03818 -0.1531 0.03403 -0.03622 0.1326
-0.00544 -0.04004 0.0606 -0.0388 0.03415 -0.08124 -0.02895 0.02428
-0.00956 0.05267 0.03014 -0.098 -0.005154 0.01799 -0.0422 -0.07605
-0.0288 0.05545 -0.03305 0.005028 0.02292 -0.0101 -0.03854 0.00287
0.0157 -0.006428 -0.014496 0.00979 0.1349 -0.0828 -0.02565 0.2113
-0.00899 0.03546 0.03317 -0.04224 0.010666 -0.01024 0.1638 -0.03897
00000000: 3628 222d aaae 1da7 2e2f 8930 d6ae eb29
00000010: f731 aead bea4 35ac 662f 6e2d 88a4 6ea0
00000020: fdae 2aae 292c 4dad 6f29 f029 f32c 1dad
00000030: 9831 cb2c b59a 70af d82d 7c30 1130 e098
00000040: d231 de2a 7e2c 7ca7 122a 5eaa c7aa 69a4
00000050: 7a2b 7fac 1b22 67ac 6123 35b0 a5a7 1f2e
00000060: 1729 e3b0 e12d 492f c320 14ae 38a4 3526
00000070: 8db3 9932 aea4 14b0 342d b0ad 4fae 3e2d
00000080: 99ad a429 5c30 8228 07a8 7c9a 2331 37a8
00000090: 579f 04b1 b62f 5a2f 65a9 cbac e328 03ae
000000a0: d6a4 6024 7827 2e2a df9e 1aaa 9a12 8529
000000b0: 95ae 8aa8 e130 892e feac 40b5 c428 2a21
000000c0: cea2 059e 1330 faa5 7430 7aa4 bfa8 5ea6
000000d0: 1b25 0bb1 03a4 2028 db2d 7429 2523 a7a4
000000e0: d6a6 2ab2 af2c 9eab 89a4 21ac 7eb2 f5a2
000000f0: f030 ad2d 5526 60ae 5630 fc29 7c2c 1a2b
00000100: 5931 a127 2f9b 9e33 5bac 7aad d0ac e1ac
00000110: 09ac 46ac 31af 09ae 4724 6b34 9da9 3e2a
00000120: e824 fead 9430 1433 152d c0ab 95a4 d831
00000130: 83b3 bb2b cfa2 35b1 f22d 3fa8 f12a 5d2d
00000140: 842f d5a7 4b29 2ea5 5329 5f2d b730 e030
00000150: 922a e621 95a1 2429 beae 3329 2bac 54b0
00000160: 94aa 31b1 629a 0c2b 0e27 2eaa 099b 862e
00000170: 2a2c 1927 792b 782d 17ad b52f 8c24 6f24
00000180: 7f25 a7ad 04ae 3228 6099 69ac fe9a 83a9
00000190: 9c2a 2126 99ac ef2a aa26 eeab 37ac 93aa
000001a0: 2094 2129 722b e328 e6b0 5b28 a3a8 3e30
000001b0: 929d 20a9 c22b f7a8 5f28 33ad 69a7 3726
000001c0: e5a0 be2a b727 46ae 479d 9b24 67a9 deac
000001d0: 5fa7 192b 3ba8 261d de25 2ca1 efa8 e119
000001e0: 0524 959e 6ca3 0321 5130 4dad 91a6 c332
000001f0: 9aa0 8a28 3f28 68a9 7621 3ea1 3e31 fda8

model/sconv1/Conv2D f2 [96, 5, 5, 96]
0.06287 -0.0973 -0.05228 0.07104 0.1813 -0.08356 0.005333 -0.102
-0.1333 -0.2356 -0.10846 0.04633 -0.0836 -0.099 -0.01991 0.1849
0.137 -0.1796 0.05136 0.02615 0.2458 0.2205 0.0733 0.11505
0.2605 0.1495 0.053 -0.1095 0.2089 -0.01506 -0.0192 -0.1827
-0.0936 0.04657 -0.007328 -0.2094 0.03503 -0.17 -0.02252 -0.2041
-0.007336 -0.04196 0.042 0.12274 0.2114 -0.05444 0.1001 0.1902
0.0712 -0.1498 0.2035 -0.0979 0.1154 0.1414 0.098 -0.0945
-1.069 0.1421 0.11664 0.233 0.00426 0.1136 0.1421 -0.282
-0.10284 0.12354 -0.08777 0.05487 0.003477 -0.0805 0.1428 -0.0675
-0.1362 -0.1948 -0.02144 0.03062 -0.133 -0.0255 -0.0663 0.104
-0.2744 -0.003284 0.002213 0.0285 0.0802 -0.07574 -0.0171 -0.1019
-0.1311 0.07166 0.1504 -0.2069 -0.2527 0.1337 -0.0773 -0.01248
0.02837 0.0007944 -0.10583 0.01455 -0.1614 -0.1613 0.02309 0.0792
-0.2915 0.01251 0.1791 0.01045 0.1115 -0.0326 0.01581 0.0008817
-0.013245 0.01656 -0.0479 0.02417 -0.12024 -0.03317 0.1672 -0.044
0.01076 0.0695 0.1248 -0.0436 0.0182 -0.0158 0.02682 -0.00838
-0.0517 0.05133 -0.01729 0.07184 0.0995 -0.0531 -0.00423 -0.05127
0.03494 0.01393 -0.0712 -0.005398 0.02321 -0.1017 -0.2861 -0.01161
-0.04684 -0.03069 -0.02924 -0.2004 0.0143 0.1261 -0.1669 -0.0685
-0.505 -0.229 -0.01457 0.007664 -0.011406 -0.1907 0.002384 0.01435
0.04306 0.04642 -0.10187 0.0717 0.01507 -0.0753 0.05112 -0.0925
0.0641 0.02226 -0.1815 0.0703 -0.0212 -0.0781 -0.06107 0.02177
-0.2573 0.0807 -0.015465 -0.00425 0.05353 0.0224 0.00531 -0.00511
-0.002783 -0.02681 0.06384 -0.02203 0.0411 0.0874 0.1104 -0.013435
0.005154 0.007683 -0.12463 -0.01646 -0.02606 0.01825 0.05008 0.01272
-0.184 -0.02666 0.02063 0.0207 0.04382 0.02103 -0.007137 -0.01585
-0.04828 -0.003496 -0.07916 0.02086 -0.07294 -0.05307 0.1239 -0.06323
-0.08606 -0.01979 0.09106 0.0479 0.02554 -0.0306 0.01782 -0.03458
-0.0543 0.00997 0.02238 0.05103 0.01537 -0.03784 0.0337 0.003408
-0.02864 0.0481 -0.03032 -0.04 -0.01338 -0.1713 -0.2578 -0.0291
-0.01985 0.03403 -0.0661 -0.1304 0.00941 0.03625 -0.1015 0.03778
-0.3953 -0.1371 -0.00769 -0.1031 -0.00454 -0.042 0.04813 0.0685
00000000: 062c 3aae b1aa 8c2c cd31 59ad 761d 87ae
00000010: 44b0 8ab3 f1ae ee29 5aad 56ae 19a5 eb31
00000020: 6230 bfb1 932a b226 de33 0e33 b12c 5d2f
00000030: 2b34 c930 c92a 02af af32 b6a3 eaa4 d9b1
00000040: fead f629 819f b3b2 7c28 71b1 c4a5 88b2
00000050: 839f 5fa9 6029 db2f c432 f8aa 682e 1632
00000060: 8f2c cbb0 8332 44ae 632f 8630 462e 0cae
00000070: 47bc 8c30 772f 7533 5d1c 452f 8c30 83b4
00000080: 95ae e82f 9ead 062b 1f1b 27ad 9230 52ac
00000090: 5cb0 3cb2 7da5 d727 42b0 87a6 3eac a82e
000000a0: 64b4 ba9a 8818 4c27 222d d9ac 61a4 86ae
000000b0: 32b0 962c d030 9fb2 0bb4 4730 f2ac 64a2
000000c0: 4327 8212 c6ae 7323 2ab1 29b1 e925 122d
000000d0: aab4 6822 bb31 5a21 232f 2ca8 0c24 3913
000000e0: c8a2 3d24 22aa 3026 b2af 3fa8 5a31 a2a9
000000f0: 8221 732c fd2f 95a9 a924 0ba4 de26 4aa0
00000100: 9eaa 922a 6da4 992c 5e2e ccaa 559c 90aa
00000110: 7928 2223 8fac 879d f125 82ae 94b4 f2a1
00000120: ffa9 dba7 7ca7 6ab2 5223 0930 57b1 62ac
00000130: 0ab8 54b3 76a3 d91f d7a1 1ab2 e218 5923
00000140: 8329 f129 85ae 972c b723 d2ac 8b2a ecad
00000150: 1a2c b325 cfb1 802c 6da5 00ad d1ab 9325
00000160: 1eb4 2a2d eba3 5a9c da2a bc25 701d 3c9d
00000170: b399 dda6 162c a4a5 4329 982d 112f e1a2
00000180: 471d de1f faaf 37a4 aca6 ac24 692a 8322
00000190: e3b1 d3a6 4825 4d25 9c29 6225 4f9f 0fa4
000001a0: 2eaa 299b 11ad 5725 abac cbaa ee2f 0cac
000001b0: 82ad 11a5 d42d 222a 8a26 d5a7 9024 6da8
000001c0: f3aa 1b21 bb25 882a df23 d8a8 5028 fb1a
000001d0: 55a7 282a c3a7 1fa9 daa2 7bb1 20b4 73a7
000001e0: 15a5 5b28 3bac 2cb0 d120 a428 7fae d628
000001f0: 53b6 63b0 e09f 99ae a69c 60a9 292a 622c

model/sconv2.mask_conv2d1/depthwise f2 [1, 3, 3, 96]
-0.1054 -0.0836 0.0921 -0.05145 -0.0829 -0.00239 0.0611 -0.0618
0.0785 -0.11554 -0.04065 -0.1432 -0.11566 0.04715 0.19 0.06152
0.006287 -0.1516 -0.538 0.129 -0.0226 0.01225 -0.098 -0.04388
0.03107 0.3508 -0.02917 -0.01341 -0.04596 -0.08344 0.00892 0.1783
-0.00663 0.0378 -0.2717 -0.01315 -0.04208 -0.003416 0.1934 -0.02063
0.0692 -0.2285 -0.1121 -0.049 0.00396 -0.1086 -0.11365 0.08014
0.1963 -0.09753 0.1163 0.2515 0.04745 0.0042 -0.112 -0.0772
0.0517 -0.077 0.4045 -0.0924 0.11975 0.009926 -0.002184 0.07336
0.0647 -0.0355 0.0793 0.0663 0.1184 -0.1637 -0.07587 -0.1771
0.03906 0.03943 0.1224 0.003664 -0.1665 0.05585 0.0213 -0.01529
-0.0546 0.1343 0.03384 0.01837 0.0516 -0.1021 0.1973 0.0673
0.09106 0.0647 0.00649 0.00683 0.1057 0.1558 0.0779 0.059
-0.0815 -0.10455 0.02351 -0.0465 -0.1149 -0.05344 0.06683 -0.07355
0.05176 -0.1697 -0.0392 -0.0437 -0.1353 -0.04337 0.1593 0.0723
-0.06384 0.03363 -0.2263 0.0515 -0.04413 -0.11115 -0.0931 -0.06027
0.03876 0.07477 0.2224 0.1302 -0.09296 -0.03464 0.03854 0.0891
0.03882 0.0669 -0.1364 -0.08386 -0.0007067 -0.07733 0.1301 -0.128
0.0679 -0.1962 -0.0999 0.06018 0.00815 -0.04163 -0.0852 -0.02391
0.2147 -0.0746 0.08936 0.27 0.03406 0.0675 -0.06915 -0.1741
0.00667 -0.03128 0.0693 -0.1186 0.057 0.0891 0.000363 0.01624
0.11456 -0.09216 0.02763 0.11743 0.02013 -0.1952 0.0488 -0.04465
0.04233 -0.02689 0.09 0.08765 -0.08746 0.08026 0.0802 -0.04425
-0.003576 0.11835 0.00983 -0.004246 0.08514 -0.05014 0.11945 0.05002
0.1204 0.08716 -0.0633 -0.01164 0.005848 0.0594 0.1351 0.00463
0.001185 -0.1824 0.137 0.001491 -0.1046 -0.0451 0.0446 -0.0668
0.007484 -0.1124 -0.0106 -0.07666 0.03894 -0.001335 0.1205 0.0787
-0.04956 -0.02748 -0.2205 0.1227 -0.0806 0.0072 -0.12274 -0.03075
-0.06726 0.05206 0.1985 0.003029 -0.05655 -0.05484 0.03693 0.0713
0.01443 0.1057 -0.107 -0.0945 -0.01178 -0.00914 0.07495 -0.03693
-0.0455 -0.0653 -0.01756 -0.03503 0.0837 -0.0004733 -0.08954 0.05087
0.1776 -0.01502 0.0939 0.2593 0.0422 0.03122 -0.04727 -0.0646
0.009514 0.0007563 0.1321 -0.04877 0.08795 -0.04355 0.02367 0.0816
00000000: bfae 5aad e52d 96aa 4ead e598 d22b e9ab
00000010: 062d 65af 34a9 95b0 67af 092a 1432 e02b
00000020: 701e dab0 4eb8 2130 c9a5 4622 46ae 9ea9
00000030: f427 9d35 78a7 dea2 e2a9 57ad 9120 b531
00000040: ca9e d728 59b4 bca2 63a9 ff9a 3032 48a5
00000050: 6e2c 50b3 2daf 46aa 0e1c f3ae 46af 212d
00000060: 4832 3eae 712f 0634 132a 4d1c 2baf f1ac
00000070: 9e2a eeac 7936 eaad aa2f 1521 7998 b22c
00000080: 242c 8ba8 132d 3e2c 942f 3db1 dbac abb1
00000090: 0029 0c29 d52f 811b 54b1 262b 7425 d4a3
000000a0: fdaa 4c30 5528 b424 9b2a 89ae 5032 4f2c
000000b0: d42d 242c a51e fe1e c42e fc30 fc2c 8d2b
000000c0: 37ad b1ae 0526 f4a9 5baf d7aa 472c b5ac
000000d0: a02a 6eb1 05a9 98a9 54b0 8da9 1931 a12c
000000e0: 16ac 4e28 3eb3 982a a6a9 1daf f5ad b7ab
000000f0: f628 c92c 1e33 2b30 f3ad 6fa8 ef28 b42d
00000100: f828 482c 5db0 5ead ca91 f3ac 2a30 19b0
00000110: 582c 47b2 65ae b42b 2c20 54a9 74ad 1fa6
00000120: df32 c6ac b82d 5234 5c28 522c 6dac 92b1
00000130: d51e 01a8 6f2c 97af 4c2b b42d f30d 2824
00000140: 552f e6ad 1327 842f 2725 3fb2 3f2a b7a9
00000150: 6b29 e2a6 c32d 9c2d 99ad 232d 222d aaa9
00000160: 539b 932f 0821 599c 732d 6baa a52f 672a
00000170: b52f 942d 0dac f6a1 fd1d 9a2b 5330 be1c
00000180: db14 d6b1 6230 1b16 b2ae c6a9 b529 46ac
00000190: aa1f 32af 6da1 e8ac fc28 7895 b62f 092d
000001a0: 58aa 09a7 0eb3 da2f 29ad 5f1f dbaf dfa7
000001b0: 4eac aa2a 5a32 341a 3dab 05ab ba28 902c
000001c0: 6323 c42e d9ae 0cae 08a2 aea0 cc2c baa8
000001d0: d3a9 2eac 7fa4 7ca8 5b2d c18f bbad 832a
000001e0: af31 b1a3 022e 2634 6729 fe27 0daa 22ac
000001f0: df20 3212 3a30 3eaa a12d 93a9 0f26 392d

model/sconv2.mask_conv2d2/Conv2D f2 [96, 1, 1, 96]
-0.0236 0.0588 0.01355 -0.1515 -0.0731 0.10016 0.2161 0.0788
-0.0277 0.01109 0.0911 0.02232 -0.11383 0.12396 -0.09357 0.04712
0.07874 -0.01344 -0.03577 -0.06152 0.02344 0.01683 -0.01566 -0.09406
0.05817 0.11456 0.00864 -0.006596 0.1149 -0.0724 -0.0003092 0.1719
0.11365 -0.001096 -0.00363 0.03043 -0.0934 -0.04645 0.10535 0.0741
-0.1265 0.01866 0.2207 -0.1038 0.01213 0.1313 -0.189 0.1056
0.0222 -0.0413 -0.1334 0.00403 -0.0895 -0.07056 0.08905 0.05417
-0.01581 0.001552 0.08997 -0.10614 -0.06805 -0.10925 -0.02808 -0.04642
-0.08746 0.10065 -0.0902 -0.05685 -0.03168 -0.05682 -0.1421 0.07996
-0.03607 0.0434 -0.187 -0.0533 0.10443 -0.202 -0.1395 0.0725
-0.01484 -0.1277 -0.05478 -0.05096 -0.03915 0.0934 0.002405 -0.01449
-0.13 -0.00537 0.01634 0.1519 -0.08936 -0.01528 -0.0299 -0.04254
-0.408 0.05432 -0.1017 0.05063 0.08215 0.12396 -0.10803 -0.0749
-0.04648 0.0399 0.2128 0.06683 0.2345 -0.08685 -0.09247 0.0206
-0.332 -0.06744 -0.05685 -0.0303 0.03558 0.011314 0.0712 0.1846
0.01371 0.00701 -0.01826 -0.02327 -0.1946 0.03592 0.0228 0.0793
-0.0649 -0.09247 -0.01029 -0.002785 0.07184 0.1536 0.09784 -0.003029
-0.1178 -0.01582 -0.02353 0.2031 -0.01581 0.1703 0.00901 -0.05222
0.07825 0.05023 -0.03099 -0.00869 0.02452 -0.2098 -0.06866 0.1478
0.0369 0.0643 0.05164 0.02821 -0.08844 0.01417 0.08093 -0.1254
-0.111 -0.01561 0.04663 -0.006824 0.0436 0.0507 -0.05466 -0.1278
-0.0894 -0.08325 -0.2289 0.0889 0.06097 -0.238 -0.03024 0.1097
0.04175 -0.08997 -0.1556 -0.05328 -0.146 -0.02676 0.165 0.05325
-0.2913 0.1333 -0.2322 0.04135 -0.1299 -0.171 -0.09406 -0.02036
0.3176 -0.226 0.291 0.03967 0.000544 0.2817 0.010445 0.5903
0.1451 0.3694 -0.2642 0.1664 0.5034 0.1476 0.4866 -0.2076
0.6484 -0.03091 0.5273 -0.2522 0.1593 -0.0805 0.02173 -0.06085
0.3333 -0.3174 0.2198 -0.2336 0.4058 -0.1532 0.05612 -0.2063
-0.05933 -0.0876 -0.2498 0.5693 0.1143 0.0823 0.1613 -0.325
-0.001025 -0.186 0.06415 0.3652 0.1505 -0.1415 0.189 -0.02661
-0.334 0.1242 -0.1942 0.05902 -0.2234 0.141 0.1664 0.09485
-0.1847 -0.3613 -0.4292 0.108 0.05475 -0.02396 0.01242 -0.09674
00000000: 0ba6 872b f022 d9b0 aeac 692e ea32 0b2d
00000010: 17a7 ae21 d52d b725 49af ef2f fdad 082a
00000020: 0a2d e2a2 94a8 e0ab 0026 4f24 02a4 05ae
00000030: 722b 552f 6c20 c19e 5b2f a2ac 118d 8031
00000040: 462f 7d94 6f9b ca27 faad f2a9 be2e be2c
00000050: 0cb0 c724 1033 a5ae 3622 3430 0cb2 c22e
00000060: af25 49a9 45b0 201c baad 84ac b32d ef2a
00000070: 0ca4 5b16 c22d cbae 5bac feae 30a7 f1a9
00000080: 99ad 712e c6ad 47ab 0ea8 46ab 8cb0 1e2d
00000090: 9ea8 8e29 fcb1 d3aa af2e 77b2 77b0 a42c
000000a0: 99a3 16b0 03ab 86aa 03a9 fa2d ed18 6ba3
000000b0: 29b0 809d 2f24 dc30 b8ad d3a3 a8a7 72a9
000000c0: 87b6 f42a 82ae 7b2a 422d ef2f eaae cbac
000000d0: f3a9 1b29 cf32 472c 8133 8fad ebad 4625
000000e0: 50b5 51ac 47ab c2a7 8e28 cb21 8f2c e831
000000f0: 0523 2e1f ada4 f5a5 3ab2 9928 d625 132d
00000100: 27ac ebad 45a1 b499 992c ea30 432e 349a
00000110: 8aaf 0da4 06a6 8032 0ca4 7331 9d20 afaa
00000120: 022d 6e2a efa7 73a0 4726 b7b2 65ac bb30
00000130: b928 1d2c 9c2a 3927 a9ad 4123 2e2d 03b0
00000140: 1baf fea3 f829 fd9e 9529 7d2a ffaa 17b0
00000150: b9ad 54ad 53b3 b12d ce2b 9eb3 bea7 052f
00000160: 5829 c2ad fbb0 d2aa acb0 daa6 4831 d12a
00000170: a9b4 4430 6eb3 4b29 28b0 79b1 05ae 36a5
00000180: 1535 3bb3 a834 1429 7510 8234 5921 b938
00000190: a530 e935 3ab4 5331 0738 b930 c937 a5b2
000001a0: 3039 eaa7 3838 09b4 1931 27ad 9025 caab
000001b0: 5535 14b5 0933 7ab3 7e36 e7b0 2f2b 9ab2
000001c0: 98ab 9bad feb3 8e38 512f 442d 2931 33b5
000001d0: 3394 f4b1 1b2c d835 d130 87b0 0c32 d0a6
000001e0: 58b5 f32f 37b2 8e2b 26b3 8330 5331 122e
000001f0: e9b1 c8b5 deb6 e92e 022b 22a6 5c22 31ae

model/sconv2/Conv2D f2 [96, 3, 3, 96]
-0.03137 -0.01066 0.0786 0.0827 -0.02635 0.004684 0.02727 0.0173
0.02606 -0.0847 -0.003057 0.0087 -0.2852 -0.001018 -0.013664 -0.0866
-0.02277 0.0349 0.03717 -0.02307 -0.01273 -0.0346 -0.00707 -0.03146
-0.0527 -0.1028 -0.03452 -0.07214 -0.06125 0.04785 -0.03995 -0.02902
-0.02194 0.01733 0.002508 0.005768 0.0674 -0.02231 -0.1126 0.02649
0.00721 0.00958 -0.04758 0.01814 -0.065 0.0223 -0.00769 -0.08344
0.0476 -0.004456 0.04642 -0.0278 0.001308 0.003464 0.0925 -0.006416
0.04233 -0.004242 0.006374 0.003546 0.1294 0.014786 -0.01036 0.01784
-0.01701 -0.063 -0.04004 0.03564 0.0414 -0.01509 0.00318 0.05173
-0.003296 0.1464 -0.0086 -0.02321 0.0364 0.1018 -0.06235 -0.02097
0.07806 0.03348 0.03787 0.01584 -0.03387 -0.01332 -0.05524 -0.00729
0.03973 0.01058 0.0525 -0.05716 0.1002 0.03363 0.02298 0.03973
-0.02502 0.0694 0.01819 -0.07294 0.0195 0.07263 -0.1101 0.03528
0.007244 0.01019 0.0019 0.02676 0.004826 0.03824 0.03342 -0.002346
0.0516 -0.01153 -0.00854 -0.01144 0.001803 -0.04526 -0.0539 -0.04837
-0.02693 -0.04944 -0.1096 0.00389 0.04398 0.0587 0.01863 0.01075
0.01933 0.0875 0.02724 0.01823 0.09033 0.1438 -0.1257 0.05908
0.02017 0.01674 -0.0549 0.0001272 0.0533 -0.003975 -0.04114 -0.03842
-0.02586 -0.04855 0.08636 0.02074 -0.0351 -0.013275 0.02603 0.004642
-0.01275 0.10706 -0.0728 0.02899 0.1241 0.0706 0.05414 -0.03662
0.056 0.05325 0.02293 -0.02174 -0.02173 0.002716 0.0046 0.035
-0.0519 0.1614 0.0956 0.005882 0.02364 0.1583 0.02237 -0.1179
0.008156 -0.04672 0.01331 0.04483 -0.0429 0.04285 -0.008354 -0.014824
0.053 -0.07227 -0.01839 -0.0175 0.07245 0.05304 -0.07574 0.0462
0.0278 -0.0544 0.05637 0.03876 -0.02406 0.02263 -0.004383 0.0704
0.05392 0.01321 0.0018425 -0.02147 0.02303 0.088 -0.007595 -0.010765
0.01368 0.05463 0.04022 0.1042 0.05276 -0.01628 0.0269 -0.02727
-0.005783 0.1338 -0.02007 0.04694 0.11255 -0.02078 0.009674 -0.01395
0.0486 -0.02031 -0.04395 -0.0447 -0.09406 -0.003376 -0.0516 -0.01717
-0.01108 -0.011185 -0.01375 0.006283 0.02196 0.0669 -0.02307 -0.06537
-0.01772 -0.0004048 0.08344 -0.02977 -0.0388 0.01569 -0.03143 0.02206
-0.02347 -0.1152 0.0101 0.0513 0.05777 0.0541 0.04645 -0.007732
00000000: 04a8 75a1 082d 4b2d bfa6 cc1c fb26 6e24
00000010: ac26 6cad 439a 7420 90b4 2b94 ffa2 8bad
00000020: d4a5 7828 c228 e8a5 85a2 6ea8 3d9f 07a8
00000030: bfaa 94ae 6ba8 9eac d7ab 202a 1da9 6ea7
00000040: 9ea5 7024 2319 e81d 502c b6a5 35af c826
00000050: 621f e820 17aa a524 29ac b525 e09f 57ad
00000060: 182a 909c f129 1ea7 5c15 181b ec2d 929e
00000070: 6b29 589c 871e 431b 2430 9223 4ea1 9124
00000080: 5ba4 08ac 20a9 9028 4d29 baa3 831a 9f2a
00000090: c09a af30 67a0 f1a5 a928 842e fbab 5ea5
000000a0: ff2c 4928 d928 0e24 56a8 d2a2 12ab 779f
000000b0: 1629 6b21 b82a 51ab 6a2e 4e28 e225 1629
000000c0: 68a6 712c a824 abac fe24 a62c 0caf 8428
000000d0: 6b1f 3821 c817 da26 f11c e528 4728 ce98
000000e0: 9b2a e7a1 5fa0 dba1 6317 cba9 e6aa 31aa
000000f0: e5a6 54aa 04af f71b a129 832b c524 8121
00000100: f324 9a2d f926 ab24 c82d 9a30 06b0 902b
00000110: 2a25 4924 07ab 2b08 d32a 129c 44a9 eba8
00000120: 9fa6 37aa 872d 4f25 7ea8 cca2 aa26 c11c
00000130: 87a2 da2e a9ac 6c27 f12f 852c ee2a b0a8
00000140: 2b2b d12a df25 91a5 90a5 9019 b61c 7b28
00000150: a5aa 2a31 1e2e 061e 0d26 1131 ba25 8caf
00000160: 2d20 fba9 d122 bd29 7ea9 7c29 47a0 97a3
00000170: c92a a0ac b5a4 7ba4 a32c ca2a d9ac ea29
00000180: 1e27 f7aa 372b f628 29a6 cb25 7d9c 812c
00000190: e72a c322 8c17 7fa5 e525 a22d c79f 83a1
000001a0: 0123 fe2a 2629 ab2e c12a 2ba4 e326 fba6
000001b0: ec9d 4830 23a5 022a 342f 52a5 f420 24a3
000001c0: 392a 33a5 a0a9 b9a9 05ae ea9a 9baa 65a4
000001d0: aca1 baa1 0aa3 6f1e 9f25 482c e8a5 2fac
000001e0: 89a4 a28e 572d 9fa7 f7a8 0424 06a8 a625
000001f0: 02a6 5faf 2c21 912a 652b ed2a f229 eb9f

model/tf.compat.v1.nn.conv2d_2/Conv2D1 f2 [1, 3, 3, 1]
1.0 0.0 0.0 0.0 1.0 0.0 0.0 0.0
1.0
00000000: 003c 0000 0000 0000 003c 0000 0000 0000
00000010: 003c

model/sconv1.mask_conv2d1/BiasAdd;model/sconv2/Conv2D;model/sconv1.mask_conv2d1/depthwise;model/sconv1.mask_conv2d1/BiasAdd/ReadVariableOp/resource f2 [96]
-0.1095 0.3027 -0.002638 0.1059 -0.1118 -0.0352 0.1117 -0.10284
-0.22 0.08777 0.0802 -0.07214 -0.03845 -0.08014 0.1967 0.006134
0.1271 0.1774 -0.1305 0.03102 0.05777 0.1361 0.1975 -0.10406
-0.01746 -0.05942 -0.1398 0.003675 -0.06216 0.2717 -0.0713 0.09125
-0.1378 -0.00826 -0.07367 -0.2059 0.0974 0.1399 0.05695 0.1671
0.1342 0.02074 0.06757 0.00843 0.1179 0.01319 -0.03436 0.04395
-0.09393 0.03757 -0.0901 -0.1954 0.02965 0.1863 0.10565 -0.1575
0.13 -0.09937 -0.0774 0.05637 -0.06647 0.011215 0.05002 -0.05643
-0.0991 -0.1497 -0.12427 0.04092 -0.02513 -0.01515 0.00604 0.003023
-0.05997 -0.1132 -0.173 0.0919 0.009735 0.10284 0.0975 0.2135
-0.043 -0.003416 -0.0482 -0.046 -0.000983 0.0946 0.1859 -0.1018
-0.0527 0.03973 -0.0394 -0.0971 0.0554 -0.077 0.09796 -0.1577
00000000: 02af d834 6799 c72e 28af 81a8 262f 95ae
00000010: 0ab3 9e2d 222d 9eac eca8 21ad 4b32 481e
00000020: 1130 ad31 2db0 f127 652b 5b30 5232 a9ae
00000030: 78a4 9bab 79b0 871b f5ab 5934 90ac d72d
00000040: 69b0 3ba0 b7ac 97b2 3c2e 7a30 4a2b 5931
00000050: 4b30 4f25 532c 5120 8c2f c122 66a8 a029
00000060: 03ae cf28 c4ad 41b2 9727 f631 c32e 0ab1
00000070: 2930 5cae f4ac 372b 41ac be21 672a 39ab
00000080: 58ae cab0 f4af 3d29 6fa6 c2a3 2f1e 311a
00000090: adab 3faf 89b1 e22d fc20 952e 3d2e d532
000000a0: 81a9 ff9a 2baa e3a9 0794 0e2e f331 84ae
000000b0: bfaa 1629 0ba9 37ae 172b eeac 452e 0cb1

model/sconv1.mask_conv2d2/BiasAdd;model/sconv2/Conv2D;model/sconv1.mask_conv2d2/Conv2D;model/sconv1.mask_conv2d2/BiasAdd/ReadVariableOp/resource f2 [96]
-0.00584 -0.022 -0.0244 -0.1616 0.0647 -0.05762 -0.07764 0.06445
-0.08984 0.1065 -0.0263 0.03014 0.00929 0.004677 -0.1164 -0.06494
0.11176 -0.0136 0.2034 -0.0454 -0.0795 -0.07574 -0.017 -0.03058
-0.03427 0.1398 -0.04623 -0.01197 0.06824 -0.0944 -0.0758 0.01551
0.00885 -0.0643 0.01429 -0.04056 0.007347 0.07684 0.1317 -0.04886
0.01089 -0.0557 -0.05472 0.0412 -0.0635 -0.04153 0.0599 -0.07666
-0.05865 -0.0304 0.03876 -0.1302 -0.1343 -0.0774 -0.06207 -0.02397
-0.032 -0.1114 0.3545 0.03745 0.062 0.00827 0.0844 -0.086
-0.11896 -0.04233 0.02678 -0.07007 -0.01938 -0.03415 -0.03622 0.1343
-0.04178 -0.01184 0.05057 -0.0506 -0.03577 0.00617 0.04984 0.010376
-0.03732 -0.04575 -0.1252 0.11084 -0.06366 0.0582 0.08453 -0.0962
0.02281 -0.02115 0.03574 -0.01462 -0.0835 -0.0667 -0.04745 -0.08636
00000000: fb9d a2a5 3fa6 2cb1 242c 60ab f8ac 202c
00000010: c0ad d12e bca6 b727 c220 ca1c 73af 28ac
00000020: 272f f7a2 8232 d0a9 17ad d9ac 5aa4 d4a7
00000030: 63a8 7930 eba9 21a2 5e2c 0bae daac f123
00000040: 8820 1dac 5123 31a9 861f eb2c 3730 41aa
00000050: 9321 21ab 01ab 4629 10ac 51a9 ab2b e8ac
00000060: 82ab c8a7 f628 2bb0 4cb0 f4ac f2ab 23a6
00000070: 19a8 21af ac35 cb28 f02b 3c20 672d 81ad
00000080: 9daf 6ba9 db26 7cac f6a4 5fa8 a3a8 4c30
00000090: 59a9 10a2 792a 7aaa 94a8 511e 612a 5021
000000a0: c7a8 dba9 02b0 182f 13ac 732b 692d 28ae
000000b0: d725 6aa5 9328 7ca3 58ad 45ac 13aa 87ad

model/sconv1/BiasAdd;model/sconv2/Conv2D;model/sconv1/Conv2D;model/sconv1/BiasAdd/ReadVariableOp/resource f2 [96]
0.02245 0.0949 -0.02576 -0.01261 -0.0832 -0.05228 -0.10693 0.02274
-0.1406 0.0629 0.03943 -0.1862 -0.191 0.07025 -0.1711 -0.0966
0.1578 -0.128 -0.06165 -0.1825 -0.08856 0.05643 0.2673 -0.11444
-0.0834 -0.003681 0.07654 -0.02155 0.12 0.1044 -0.1412 -0.164
-0.12305 -0.0739 0.2637 -0.0654 -0.104 -0.1707 -0.1661 0.04773
-0.07336 0.05835 -0.124 0.04697 -0.04556 0.1562 -0.2239 -0.0408
-0.2435 0.1351 0.1727 -0.02846 -0.1401 -0.02896 0.1447 0.00058
-0.0559 0.0546 -0.2037 -0.06207 -0.015495 -0.015564 0.01898 -0.1014
-0.1809 -0.01232 0.04062 -0.2644 0.014114 0.1646 -0.2554 0.02711
-0.1219 0.07385 0.1312 -0.0193 0.3337 0.1681 0.10675 0.1495
-0.0898 0.02686 -0.05524 0.002226 0.0861 0.2018 0.1338 -0.1051
0.0192 -0.2222 0.04227 -0.0213 0.096 0.2317 -0.05554 -0.1659
00000000: bf25 132e 98a6 75a2 53ad b1aa d8ae d225
00000010: 80b0 072c 0c29 f5b1 1db2 7f2c 7ab1 2fae
00000020: 0d31 19b0 e4ab d7b1 abad 392b 4734 53af
00000030: 56ad 8a9b e62c 84a5 ae2f ae2e 85b0 3fb1
00000040: e0af bbac 3834 30ac a8ae 76b1 51b1 1c2a
00000050: b2ac 782b f0af 032a d5a9 0031 2ab3 39a9
00000060: cbb3 5330 8731 49a7 7cb0 6aa7 a130 c010
00000070: 28ab fd2a 85b2 f2ab efa3 f8a3 dc24 7dae
00000080: cab1 4fa2 3329 3bb4 3a23 4431 16b4 f126
00000090: cdaf ba2c 3330 f1a4 5735 6131 d52e c930
000000a0: bfad e026 12ab 8f18 832d 7532 4830 baae
000000b0: ea24 1cb3 6929 74a5 252e 6a33 1cab 4fb1

model/sconv2.mask_conv2d1/BiasAdd;model/sconv2/Conv2D;model/sconv2.mask_conv2d1/depthwise;model/sconv2.mask_conv2d1/BiasAdd/ReadVariableOp/resource f2 [96]
0.1422 -0.3625 0.289 -0.4358 0.04416 -0.3845 0.01709 0.142
0.293 -0.2605 -0.4043 0.2098 -0.01656 -0.2693 0.1816 0.03302
-0.1104 0.1365 0.05713 0.1775 -0.09735 -0.1942 -0.3755 -0.3213
0.0598 -0.1716 0.1881 0.01752 0.009926 -0.1868 -0.0815 -0.02448
0.4612 0.2205 -0.2095 -0.2147 0.1833 0.1506 -0.2339 -0.2323
0.049 -0.2474 -0.3645 -0.02719 0.335 -0.257 0.1992 -0.2161
0.04437 -0.2091 0.0269 0.2045 -0.1549 0.2996 -0.23 -0.2642
-0.2141 -0.3225 -0.0981 0.1577 -0.049 0.3696 -0.31 0.2235
0.1653 -0.4011 -0.2607 -0.0435 0.3381 -0.328 0.0931 -0.1466
0.2069 0.2328 0.1815 0.1937 -0.0743 0.1838 -0.03534 -0.3848
-0.1046 0.4458 0.3447 -0.04404 0.3362 -0.0077 0.2112 0.10724
0.3547 0.2352 -0.07275 -0.3225 0.3005 0.1907 0.0408 0.1304
00000000: 8d30 cdb5 a034 f9b6 a729 27b6 6024 8b30
00000010: b034 2bb4 78b6 b732 3da4 4fb4 d031 3a28
00000020: 11af 5e30 502b ae31 3bae 37b2 02b6 24b5
00000030: a82b 7eb1 0532 7c24 1521 fab1 37ad 44a6
00000040: 6137 0e33 b4b2 dfb2 de31 d230 7cb3 6fb3
00000050: 462a ebb3 d5b5 f6a6 5c35 1db4 6032 eab2
00000060: ae29 b1b2 e326 8b32 f5b0 cb34 5cb3 3ab4
00000070: dab2 29b5 47ae 0c31 46aa ea35 f6b4 2733
00000080: 4a31 6bb6 2cb4 91a9 6935 3fb5 f52d b1b0
00000090: 9f32 7333 cf31 3332 c1ac e231 86a8 28b6
000000a0: b2ae 2237 8435 a3a9 6135 e39f c232 dd2e
000000b0: ad35 8733 a8ac 29b5 cf34 1a32 3929 2c30

model/sconv2.mask_conv2d2/BiasAdd;model/sconv2/Conv2D;model/sconv2.mask_conv2d2/Conv2D;model/sconv2.mask_conv2d2/BiasAdd/ReadVariableOp/resource f2 [96]
-0.1512 -0.08026 0.1409 -0.125 -0.04898 0.2913 0.3926 0.02797
0.07434 -0.0878 -0.07745 0.1638 0.0707 0.2018 0.2324 -0.02155
0.03564 0.004196 -0.04175 0.0853 -0.0891 -0.03418 0.03638 0.07947
0.00808 -0.03867 0.246 -0.08716 0.1375 0.0504 -0.004314 -0.0648
-0.05685 0.0094 0.416 -0.0173 0.05524 -0.08984 -0.00138 -0.017
-0.10516 0.02275 0.0361 0.03488 -0.07404 -0.11053 0.05194 0.01645
-0.0989 -0.01715 0.01764 0.1414 0.01052 0.1068 0.3752 -0.01877
0.03084 0.1716 -0.03824 0.2703 0.01554 0.2416 0.1472 -0.04697
0.02548 -0.03375 -0.04324 0.0301 -0.1055 -0.01473 0.1553 0.0123
-0.04858 -0.00678 0.003918 0.3333 -0.0003831 -0.11676 0.0349 0.11285
-0.06 -0.04312 0.00864 0.04688 0.11334 0.1696 0.00666 0.1021
0.02565 0.2301 -0.05988 0.1951 0.08 0.2366 -0.0398 -0.1178
00000000: d7b0 23ad 8230 00b0 45aa a934 4836 2927
00000010: c22c 9fad f5ac 3e31 862c 7532 7033 84a5
00000020: 9028 4c1c 58a9 762d b4ad 60a8 a828 162d
00000030: 2320 f3a8 df33 94ad 6630 742a 6b9c 26ac
00000040: 47ab d020 a836 6ea4 122b c0ad a795 5aa4
00000050: bbae d325 9f28 7728 bdac 13af a62a 3624
00000060: 54ae 64a4 8424 8630 6321 d62e 0136 cea4
00000070: e527 7e31 e5a8 5334 f523 bb33 b630 03aa
00000080: 8626 52a8 89a9 b527 c1ae 8ba3 f830 4c22
00000090: 38aa f19e 031c 5535 478e 79af 7828 392f
000000a0: aeab 85a9 6c20 002a 412f 6d31 d21e 892e
000000b0: 9126 5d33 aaab 3e32 1f2d 9233 18a9 8aaf
