cr/crfill/networks/contextual_1.tflite (tflite, 684704 bytes, 9 tensors)

model/sconv2/BiasAdd;model/sconv1.mask_conv2d/Conv2D;model/sconv2/Conv2D;model/sconv2/BiasAdd/ReadVariableOp/resource f2 [96]
00000000: 4aae 5623 d227 4134 df25 b98d 55ab 7ba8
00000010: 5728 9123 f423 ec1e ea2b 0e2c dca2 ad29
00000020: 4933 c6ae baaa cc9c 9c20 7fa9 5820 a9a9
00000030: ff2a 9433 c12f afab 8bae ed12 3ba4 68a8
00000040: 7ba9 2220 f924 19a7 10a9 e6a4 6935 60ac
00000050: 69ac bb28 ee1f af20 a8aa 2fac 7019 162c
00000060: 2d2e 9fa4 b7ac 95a4 492b 80ab 1e2c 511c
00000070: 01a2 05ac 3a38 02aa 3f23 c8ab 592c 3132
00000080: a31e 7831 c4a5 95ab f69f 3b24 c828 7d3f
00000090: 461e 0ba6 6f1e 40a6 2d2a 6f24 1f24 08ac
000000a0: d328 e031 8fa4 5430 b927 ca3b ea23 39a5
000000b0: 422d 01aa 1732 5a20 8d32 83ad 56a2 d5a5
-0.09827 0.01433 0.03055 0.2659 0.02293 -0.0003493 -0.05728 -0.035
0.0339 0.01478 0.01553 0.00676 0.06183 0.06335 -0.0134 0.04434
0.2277 -0.10583 -0.05255 -0.004684 0.009 -0.04294 0.008484 -0.04422
0.05466 0.2368 0.12115 -0.06003 -0.10223 0.0008454 -0.01653 -0.03442
-0.04282 0.00807 0.01942 -0.02773 -0.03955 -0.01913 0.3381 -0.06836
-0.0689 0.03696 0.007744 0.00915 -0.052 -0.06537 0.002655 0.06384
0.0965 -0.01805 -0.07367 -0.0179 0.05692 -0.0586 0.06433 0.004215
-0.01173 -0.0628 0.5283 -0.04694 0.01415 -0.0608 0.06793 0.1935
0.00648 0.1709 -0.02252 -0.05923 -0.007774 0.01653 0.03735 1.872
0.006126 -0.0236 0.006283 -0.02441 0.04825 0.01732 0.0161 -0.063
0.0377 0.1836 -0.0178 0.1353 0.03017 0.9736 0.01546 -0.0204
0.08215 -0.0469 0.1903 0.0085 0.2047 -0.0861 -0.012375 -0.02278

model/sconv2.mask_conv2d/BiasAdd;model/sconv1.mask_conv2d/Conv2D;model/sconv2.mask_conv2d/Conv2D;model/sconv2.mask_conv2d/BiasAdd/ReadVariableOp/resource f2 [96]
00000000: dfb2 f0ae 06b1 3424 1dae 0daf 06ae 8ea8
00000010: 23b0 3230 cbb0 b62e e3b2 5198 c42e 77b2
00000020: 28b2 9c2d 54a5 dca4 86ae f1a6 94ae 00b2
00000030: cbb2 b6b1 0bb1 e3a2 bbb0 c5aa 34b1 1bae
00000040: 5aad 0a23 a0a6 a528 792e 60b3 19a7 3ea8
00000050: 8c2a 8aaf a0ae 7cb2 c7b2 d12d 25b0 cdab
00000060: 15b3 222a 292f 0cb0 3a17 f4b4 77b2 bb2e
00000070: 86a9 c1af fcb1 abb0 01b2 30ae f6b3 f1b2
00000080: b42e e12d 0931 d125 7d2b fdaa 32ad 1f36
00000090: 28a8 01a0 95b1 25a9 2c2c 92a5 76a4 b024
000000a0: 9532 65b3 b3b1 afa7 65b0 962e b62c b6b3
000000b0: 59b1 cda7 cbb4 21af f4b0 27b2 ee20 7db1
-0.2147 -0.1084 -0.157 0.01642 -0.0955 -0.11017 -0.0941 -0.03558
-0.1293 0.1311 -0.1498 0.10486 -0.2152 -0.002108 0.1057 -0.202
-0.1924 0.08765 -0.02081 -0.01898 -0.1019 -0.02711 -0.1028 -0.1875
-0.2123 -0.1785 -0.1576 -0.01345 -0.1478 -0.0529 -0.1626 -0.0954
-0.0836 0.01375 -0.02588 0.0363 0.10114 -0.2305 -0.02773 -0.03314
0.05115 -0.1178 -0.1035 -0.2026 -0.2118 0.0909 -0.1295 -0.06094
-0.2213 0.0479 0.1119 -0.1265 0.001764 -0.3096 -0.202 0.10516
-0.04315 -0.12115 -0.187 -0.1459 -0.1876 -0.0967 -0.2488 -0.2169
0.10474 0.09186 0.1573 0.02272 0.0585 -0.0546 -0.0812 0.3826
-0.03247 -0.00782 -0.1744 -0.0402 0.0652 -0.02176 -0.01743 0.01831
0.2057 -0.2311 -0.1781 -0.03001 -0.1373 0.1029 0.0736 -0.241
-0.1671 -0.03047 -0.2996 -0.1114 -0.1548 -0.1923 0.00963 -0.1715

model/sconv1/BiasAdd;model/sconv1.mask_conv2d/Conv2D;model/sconv1/Conv2D;model/sconv1/BiasAdd/ReadVariableOp/resource f2 [96]
00000000: 56b1 54b2 fb2e 89b2 9cb0 13af f424 5daf
00000010: 5ba8 c6b4 3cb2 65b4 47ae 27b3 82a7 44b2
00000020: efb1 3cb5 b5ae ff2b b5aa 00b4 3aa1 e8b2
00000030: 62ab 2532 97ad bbb3 28b2 aeb1 84b1 3cb1
00000040: 74b1 7fb3 d3a9 e3b0 56ae c0b2 74ab f1b4
00000050: ccac 04b4 29a9 5ab2 3aaa 10a9 ec32 78b0
00000060: e62c 31b5 bfa5 4bb5 6eb4 4121 03b4 7126
00000070: cb9d 9cb3 eeae 15b6 1aae a1b2 bd24 e6b0
00000080: 1020 f4b2 11ae e0b4 60b4 21b4 f9b1 17b5
00000090: 3fad 9aa9 3cb1 d2a9 66ac 0eb1 42b2 02a9
000000a0: 38b0 a1b1 e026 f628 39b1 f3ae 33b2 a6b0
000000b0: ef91 c3b4 4fb3 b5b1 1434 f7b5 3ea9 afae
-0.1667 -0.1978 0.1091 -0.2042 -0.144 -0.11053 0.01935 -0.11505
-0.03403 -0.2983 -0.1948 -0.2747 -0.0981 -0.2235 -0.02933 -0.1958
-0.1854 -0.3271 -0.1048 0.06247 -0.0524 -0.25 -0.01021 -0.2158
-0.05768 0.192 -0.08734 -0.2416 -0.1924 -0.1775 -0.1724 -0.1636
-0.1704 -0.2343 -0.0455 -0.1527 -0.099 -0.2109 -0.05823 -0.3088
-0.07495 -0.251 -0.0403 -0.1985 -0.04865 -0.03955 0.2163 -0.1396
0.07654 -0.3245 -0.02245 -0.3308 -0.2769 0.01026 -0.2507 0.02516
-0.005657 -0.2378 -0.1083 -0.3801 -0.09534 -0.2072 0.01851 -0.1531
0.007935 -0.2173 -0.0948 -0.3047 -0.2734 -0.258 -0.1866 -0.318
-0.082 -0.04376 -0.1636 -0.04547 -0.0687 -0.158 -0.1956 -0.03912
-0.1318 -0.1759 0.02686 0.03876 -0.1632 -0.1086 -0.1937 -0.1453
-0.0007243 -0.2976 -0.2284 -0.1783 0.255 -0.3728 -0.04095 -0.10443

model/sconv1.mask_conv2d/BiasAdd;model/sconv1.mask_conv2d/Conv2D;model/sconv1.mask_conv2d/BiasAdd/ReadVariableOp/resource f2 [96]
00000000: e3b1 15b4 51b7 d7ac 60aa de24 753a f1b1
00000010: 2eaf 6e34 3ab0 c92e 68ac beb1 c8b2 0fb0
00000020: 522d 09af b3b1 85b4 44b4 7725 85b1 8cb4
00000030: 0fb4 55af a5b5 e526 62ad e436 ee35 ccb0
00000040: efb2 e0b1 28b4 01b3 51b3 69a8 c8ae 3934
00000050: 3b37 23b6 1fae 28b1 1db2 36b2 80b4 9eb3
00000060: 55b5 0fa3 96b5 0bab a3b1 49b5 ff37 9db1
00000070: 80b4 92ac aba3 3a35 9cb1 ebaf 8fb4 9eb8
00000080: ecab d0a7 91af 7123 091f 013a 40b2 75af
00000090: 7633 10b3 8cab 01a8 4cb6 64b0 81a1 05ab
000000a0: 67ad 35ad ceb5 d9b2 c327 28b2 c6b3 8526
000000b0: 4fb4 a93b c5ad d2ad 08b5 7f38 53b2 7d37
-0.184 -0.2551 -0.4573 -0.0756 -0.0498 0.01901 0.807 -0.1857
-0.1122 0.2769 -0.1321 0.106 -0.06885 -0.1794 -0.2119 -0.1268
0.0831 -0.1099 -0.1781 -0.2825 -0.2666 0.02135 -0.1725 -0.2842
-0.2537 -0.11456 -0.3528 0.02693 -0.0841 0.4307 0.3706 -0.1499
-0.2167 -0.1836 -0.2598 -0.2189 -0.2286 -0.03445 -0.10596 0.264
0.452 -0.3835 -0.09564 -0.1611 -0.191 -0.1941 -0.2812 -0.238
-0.3333 -0.01379 -0.349 -0.05502 -0.1761 -0.3303 0.4998 -0.1754
-0.2812 -0.0714 -0.01498 0.3267 -0.1753 -0.1237 -0.285 -0.577
-0.0619 -0.03052 -0.1182 0.014534 0.00687 0.7505 -0.1953 -0.1165
0.2332 -0.2207 -0.05896 -0.03128 -0.3936 -0.1372 -0.01075 -0.05484
-0.0844 -0.08136 -0.3628 -0.214 0.03032 -0.1924 -0.2429 0.02547
-0.2693 0.9575 -0.09015 -0.09094 -0.3145 0.562 -0.1976 0.468

model/tf.compat.v1.nn.conv2d_1/Conv2D1 f2 [1, 3, 3, 1]
00000000: 003c 0000 0000 0000 003c 0000 0000 0000
00000010: 003c
1.0 0.0 0.0 0.0 1.0 0.0 0.0 0.0
1.0

model/sconv2/Conv2D f2 [96, 3, 3, 96]
00000000: 7fac a5b0 3f32 c6a7 5e2b 3e24 c728 f524
00000010: 88a9 fcae dbb0 242c 12ad 4727 2a9c 832f
00000020: 1f97 59b0 7e2e 3da7 39ac 47b0 13b0 a22e
00000030: 8a23 4929 78b5 282b a2ab 00b2 1696 b4b1
00000040: 9b28 8827 96ae b9a8 50ae 34b4 cb1c 8f2d
00000050: 7fa6 8e2f 3231 572d 712d 6f2d 5f25 42a5
00000060: 722f 402d 592f 7732 e62b 3698 eba6 1fa2
00000070: 25ac 8cab 4fab 3932 8f31 c5ad db2d 7ea1
00000080: a8ad c5b0 0ab0 98b1 412a 87a0 dbae 9cad
00000090: 15a9 16b3 002b 37b0 4c2b a9ad 24a4 7ba9
000000a0: 67a7 eba4 f8ad be2e 2021 cbb0 1c30 5da7
000000b0: fea0 0c2c 5da5 e62c 0da9 0e2b 9eaa 1626
000000c0: b12a 4329 26a4 3bad efad 60b0 9328 b8ab
000000d0: 54b0 6e2c 85a8 04aa 1c21 d3a8 e329 2631
000000e0: f425 9bb1 b2a6 d4b0 259c 4aa0 81a3 eb2d
000000f0: 602c be2f c531 abae 2023 f5b1 09a0 53ab
00000100: f2a7 6e18 68a9 262c d4a4 77b0 54a0 e32d
00000110: 232e 1aaa 2b23 d01f e32c 9a2f e12a 5fb3
00000120: e1a6 06aa 9faa 232e 43a3 36ab 66a6 eab1
00000130: f0a4 cda4 2eb1 a9b0 949d 5dac eaaf 97a8
00000140: 50a8 f6ad 62af 5e1e dcaa e22d d626 a3a1
00000150: d126 7cac 10b4 8f29 d72c 6e2a 80b1 03a9
00000160: 0cac 7aab 54a6 7c30 07ac f62d fba1 89ae
00000170: 4322 142d 0c2c 6029 3218 d02b 3ba9 a7ab
00000180: aa28 a535 fa30 b425 2f22 a7a6 0b1f 1aad
00000190: cd30 962e a32e 40b0 e125 ef35 8f34 a530
000001a0: 21a5 6d2b 4530 5e2e 5eac a930 3ea9 a229
000001b0: 9aa7 d22f 632e f2a9 b6aa 35a5 13a7 d7ab
000001c0: f129 9eac 5628 40b0 ff2e b9a9 d4ae 5630
000001d0: 142c 5fad 0dab e2a1 972d f72b 9ea9 8a30
000001e0: dca7 55a0 352e 8dac af97 ea2d a923 d530
000001f0: ddab 502b b2a9 dea6 d6a8 6c23 422b 6bac
-0.07025 -0.1451 0.1952 -0.03036 0.05756 0.01657 0.03732 0.01936
-0.0432 -0.10913 -0.1517 0.0647 -0.0792 0.02843 -0.004066 0.1174
-0.001739 -0.1359 0.10144 -0.02827 -0.066 -0.1337 -0.1273 0.10364
0.014725 0.0413 -0.3418 0.0559 -0.05963 -0.1875 -0.001486 -0.1782
0.03598 0.02942 -0.1029 -0.0369 -0.09863 -0.2627 0.00468 0.08685
-0.02538 0.11804 0.1624 0.08344 0.085 0.0849 0.02098 -0.02054
0.11633 0.08203 0.1148 0.202 0.0617 -0.002056 -0.02702 -0.011955
-0.06476 -0.05896 -0.0571 0.1945 0.1737 -0.09015 0.0915 -0.01073
-0.0884 -0.149 -0.1262 -0.1748 0.04886 -0.00884 -0.1071 -0.08765
-0.0397 -0.2214 0.0547 -0.1317 0.057 -0.08844 -0.01617 -0.04282
-0.02892 -0.01921 -0.09326 0.10535 0.01001 -0.1498 0.1284 -0.02876
-0.00975 0.06323 -0.02095 0.07654 -0.03946 0.0551 -0.0517 0.02377
0.05228 0.0411 -0.0162 -0.0817 -0.0927 -0.1367 0.03574 -0.0603
-0.1353 0.0692 -0.0353 -0.047 0.00998 -0.0377 0.046 0.1609
0.02325 -0.1752 -0.02615 -0.1509 -0.004047 -0.00838 -0.014656 0.09247
0.06836 0.121 0.1803 -0.1042 0.013916 -0.1862 -0.00788 -0.05722
-0.03104 0.002163 -0.04224 0.0648 -0.01886 -0.1395 -0.00845 0.092
0.0959 -0.04767 0.014 0.00763 0.07635 0.1188 0.05374 -0.2303
-0.02687 -0.04706 -0.05173 0.0959 -0.01418 -0.05634 -0.025 -0.1848
-0.01929 -0.01875 -0.1619 -0.1456 -0.005447 -0.0682 -0.12366 -0.03586
-0.0337 -0.09314 -0.11536 0.006218 -0.0536 0.0919 0.0267 -0.01101
0.02663 -0.07007 -0.254 0.04343 0.0756 0.05023 -0.1719 -0.03915
-0.06323 -0.0584 -0.02472 0.1401 -0.0629 0.09314 -0.01168 -0.1021
0.01223 0.07935 0.06323 0.042 0.002048 0.06104 -0.04086 -0.05978
0.03644 0.3528 0.1555 0.02228 0.01208 -0.02599 0.006878 -0.0797
0.15 0.1029 0.1037 -0.1328 0.02296 0.3708 0.285 0.1451
-0.02003 0.058 0.1334 0.0995 -0.06824 0.1456 -0.04095 0.044
-0.0297 0.1222 0.0998 -0.04645 -0.05243 -0.02034 -0.02763 -0.06125
0.04642 -0.07214 0.03387 -0.1328 0.1093 -0.0447 -0.1067 0.1355
0.0637 -0.0839 -0.05508 -0.01149 0.08734 0.06223 -0.04388 0.1418
-0.0307 -0.00846 0.097 -0.0711 -0.001876 0.0924 0.01496 0.151
-0.06143 0.05713 -0.0445 -0.02682 -0.03778 0.014496 0.0567 -0.06903

model/sconv2.mask_conv2d/Conv2D f2 [96, 1, 1, 96]
00000000: 05a8 482e 32ac 012b 4b2b 9e26 8e2f d82d
00000010: 41a8 69a2 f42d b8af 5b34 5ba6 0fa1 7527
00000020: a232 b2a7 1929 a932 18a4 6c2f 32ad 86b0
00000030: a79d 87aa 6331 6f2c 38b0 1729 672e 512a
00000040: 2db2 ee29 d6aa 3ea8 3fa0 5f29 3926 6030
00000050: 3131 4b2b c6a8 442b 6ea8 fc26 e4b1 4fa4
00000060: 3f21 6230 5a99 07a8 0e2e 6e2e 1d32 5921
00000070: 4d2d dc31 6c31 19ad 3929 0d30 eaaa ccb2
00000080: 1c30 3131 3531 65ac fd2c 3f2d 2ab0 dcb1
00000090: c230 ce2d 6515 02ae 7a8e 0523 602c e91d
000000a0: 7730 0926 382c 0627 a626 0c33 ff2e 8631
000000b0: 8eab d12f 4730 39ae bbac 442e 9032 182c
000000c0: 5b33 cfa9 75b1 fe2c 5f31 7a2c 7831 4aab
000000d0: 8225 e933 b2a1 d72d 7134 4b1f b934 c434
000000e0: bbb3 7d2b 8f30 b5a4 629d c036 14b1 69aa
000000f0: 56a8 1baa 96b2 1a95 042b a034 d62f cd2d
00000100: 78b2 0f34 2ba3 4cb1 7330 1626 b6a5 2633
00000110: 902c 8cad ea99 9e2f d8a6 7920 e9aa 562a
00000120: 9528 1fb2 de26 6530 8930 91a4 ab2f 279a
00000130: f0ac 70ac 5828 de35 bfac 1fa2 552d 2b9e
00000140: 0bb1 219f ed2a 6a29 0e2e 0133 ba27 8c27
00000150: cf35 5324 06b0 4c37 45a8 dfac 6eb1 2fa6
00000160: 2a2c ab33 a8ad 55b0 a32f 9134 4829 db32
00000170: 01a7 bf32 08ac 1428 55b0 b62f 672b 8429
00000180: 3030 421d 80a6 182c 0aab 0332 9931 3723
00000190: aba8 692d d32e 282a 5929 7a24 05a2 02aa
000001a0: 8e28 3aae be2c 402d 222c be30 1fa6 7b1f
000001b0: 5594 fab0 a4a6 caae 0c9b bc31 8f33 cda5
000001c0: 2729 6fb1 b024 49a6 8b22 fba7 1210 a133
000001d0: ff30 4ba5 a8a6 5222 9622 04a5 93ab 3b2c
000001e0: eba8 b927 c82f 8aa6 7928 582a ed30 fd20
000001f0: c2a5 4b8e 872b b32f 3eab d12c 49ad c925
-0.0314 0.09814 -0.06555 0.05472 0.05698 0.02585 0.11804 0.0913
-0.03323 -0.01252 0.093 -0.1206 0.2722 -0.02483 -0.00988 0.02913
0.2073 -0.03006 0.03983 0.2081 -0.01599 0.11597 -0.0812 -0.1414
-0.00552 -0.051 0.1683 0.0693 -0.1318 0.03976 0.10004 0.04935
-0.193 0.04633 -0.0534 -0.03314 -0.00829 0.04196 0.0243 0.1367
0.1622 0.05698 -0.0373 0.05676 -0.0346 0.02728 -0.1841 -0.01683
0.01025 0.137 -0.002613 -0.03146 0.0946 0.10046 0.191 0.010445
0.0828 0.1831 0.1694 -0.07965 0.0408 0.1266 -0.05402 -0.2124
0.1284 0.1622 0.1627 -0.06866 0.07794 0.082 -0.1301 -0.1831
0.1487 0.0907 0.001317 -0.0939 -0.0003953 0.01371 0.06836 0.00577
0.1395 0.02357 0.0659 0.02744 0.02597 0.2202 0.1093 0.1726
-0.05902 0.12213 0.1337 -0.0972 -0.0739 0.0979 0.2051 0.06396
0.2299 -0.04538 -0.1705 0.078 0.1678 0.06995 0.1709 -0.05695
0.02151 0.2472 -0.01112 0.09125 0.2776 0.007122 0.2952 0.2979
-0.2416 0.0585 0.1425 -0.01839 -0.005257 0.4219 -0.1587 -0.05008
-0.03387 -0.0477 -0.2058 -0.0012455 0.0548 0.289 0.12244 0.09064
-0.2021 0.2537 -0.014 -0.1655 0.139 0.02377 -0.02231 0.2234
0.0713 -0.0867 -0.002888 0.119 -0.02673 0.008736 -0.054 0.0495
0.0358 -0.1913 0.02682 0.1373 0.1417 -0.01784 0.1198 -0.003004
-0.07715 -0.06934 0.03394 0.3667 -0.07416 -0.011955 0.0833 -0.006023
-0.1576 -0.00696 0.0541 0.0423 0.0946 0.2189 0.03018 0.02948
0.363 0.01689 -0.1257 0.456 -0.03336 -0.0761 -0.1697 -0.02415
0.06506 0.2396 -0.0884 -0.1354 0.1193 0.2854 0.04126 0.2142
-0.02736 0.2108 -0.063 0.03186 -0.1354 0.1205 0.05783 0.0431
0.1309 0.005135 -0.02539 0.06396 -0.055 0.1879 0.1749 0.01409
-0.03647 0.08453 0.1066 0.0481 0.04178 0.01749 -0.01176 -0.04694
0.03558 -0.0973 0.0741 0.08203 0.0646 0.1482 -0.02391 0.007305
-0.001058 -0.1555 -0.02594 -0.1061 -0.00344 0.1792 0.2362 -0.02266
0.04025 -0.1698 0.01831 -0.02455 0.01278 -0.03117 0.000497 0.2384
0.1561 -0.02068 -0.026 0.012344 0.01286 -0.01959 -0.05917 0.0661
-0.03842 0.03017 0.1216 -0.02554 0.03494 0.04956 0.1539 0.00974
-0.02249 -0.000384 0.0588 0.1203 -0.05658 0.07526 -0.0826 0.0226

model/sconv1/Conv2D f2 [96, 5, 5, 96]
00000000: ec31 9625 49a6 3825 a9a7 702e ada8 d622
00000010: 492a 6e2a 4ead a915 c32c d52b 58ac fb2b
00000020: 3d2a 962d afaa 18a8 22b0 0f2f 54ac fdb0
00000030: 2d33 b0ac c3a7 fe2e a7ac 9b2d 2c20 fdab
00000040: 2a30 9ca9 ad21 f332 2e2a d9aa 1ea9 ab35
00000050: f7a4 fa2f 54ab 032e 4bb1 ca2b 0ca5 30a8
00000060: 76a9 42af e827 06b7 aaab 452d 3733 02b6
00000070: b430 39ac c622 a527 7926 9aa0 54a0 5fac
00000080: 90af a124 25b4 5914 83ac 3b34 3fa8 96ae
00000090: 67a5 06b3 e1b3 c01f f92c 1c34 db22 b727
000000a0: c7aa ccaa dcab 48a9 9a2c f6b0 d429 3130
000000b0: 882f 54b7 b323 4428 bc2b 021d 3b2a 64b0
000000c0: c8b1 f324 a52c 9d25 ea24 102a 23ac 1aac
000000d0: a92e ad25 b532 42a6 0aa1 7a9c a324 bd98
000000e0: 1334 5d28 d420 8cb3 acad 90b1 f428 0d2d
000000f0: fea0 f72c f82d 9d28 a5ab d090 d12f 1e22
00000100: ffb0 0f27 44a7 4b36 37ab f4a4 d922 1534
00000110: d922 c231 d4a7 0730 fa2c e8a6 d8ac 4c2b
00000120: e6a4 3722 9f2b c2a8 9821 76ac 652f 21b7
00000130: 5ca7 76a7 a332 91b1 f921 52a2 ffac 4829
00000140: e3ad f62c d4ad d1ac 32a9 daae dfae c031
00000150: f51e ac2e 13af 1024 5029 1833 d5a9 5eaa
00000160: cd2c ca20 3025 5e19 31aa c8b2 eba1 b830
00000170: bd1c f7aa 0b26 c4aa 5c28 01a6 469f 982b
00000180: abb6 cc2d 992e a4a1 d6a8 34ac d1a9 83ac
00000190: d129 0e9c bf2e 1bb1 839b f9a0 3f21 b7a9
000001a0: 5f2e 8aaa 08a5 c38d 7bb4 e124 fe9e a3a8
000001b0: 92a9 4930 7b2c e227 3b2f 581b cb22 3ba0
000001c0: 812b cea2 f62e 8534 9eae 0015 9627 782c
000001d0: 962a 7730 5ca6 aa2e 2b2f 892d 7aa1 7d2c
000001e0: cba6 ceaa 7292 86b0 2399 592e 429d 5eb4
000001f0: 1426 92ac d230 ad2c eb2a a0a7 0c1a 0b1b
0.185 0.02182 -0.02455 0.02039 -0.02992 0.1006 -0.03653 0.01335
0.0491 0.05023 -0.0829 0.001382 0.0744 0.0612 -0.0679 0.06235
0.04874 0.0873 -0.05222 -0.03198 -0.1292 0.1103 -0.0676 -0.1559
0.2242 -0.07324 -0.03032 0.10925 -0.0727 0.0876 0.00815 -0.0624
0.1301 -0.04382 0.011086 0.2172 0.04828 -0.0535 -0.03998 0.3542
-0.0194 0.12463 -0.05725 0.09393 -0.1654 0.06085 -0.01971 -0.0327
-0.04266 -0.1134 0.03088 -0.439 -0.05988 0.08234 0.2255 -0.3755
0.147 -0.066 0.01323 0.02986 0.02528 -0.00899 -0.00845 -0.0683
-0.11816 0.01808 -0.259 0.001061 -0.0705 0.2644 -0.03317 -0.1029
-0.0211 -0.2195 -0.2462 0.00757 0.0777 0.2568 0.01339 0.03014
-0.05295 -0.0531 -0.0614 -0.04126 0.0719 -0.155 0.04553 0.131
0.1177 -0.458 0.01504 0.03333 0.06042 0.00489 0.04868 -0.1372
-0.1807 0.01933 0.0726 0.02193 0.0192 0.04736 -0.06464 -0.0641
0.10406 0.02217 0.2096 -0.02444 -0.00984 -0.00437 0.01811 -0.002314
0.2546 0.0341 0.00943 -0.2358 -0.0886 -0.1738 0.0387 0.0789
-0.00975 0.0776 0.09326 0.03604 -0.05972 -0.0005875 0.12213 0.01195
-0.1561 0.02757 -0.02838 0.3933 -0.05637 -0.01935 0.013374 0.2551
0.013374 0.1799 -0.03058 0.1259 0.07776 -0.02698 -0.0757 0.057
-0.01913 0.01214 0.05954 -0.03717 0.010925 -0.0697 0.11554 -0.4456
-0.02875 -0.02914 0.2074 -0.174 0.011665 -0.012344 -0.07806 0.04126
-0.092 0.0775 -0.09106 -0.07526 -0.0406 -0.10706 -0.10736 0.1797
0.006794 0.10425 -0.11053 0.01587 0.0415 0.2217 -0.04556 -0.04974
0.075 0.00935 0.02026 0.00262 -0.04837 -0.2119 -0.01156 0.1475
0.004627 -0.0544 0.0236 -0.05286 0.03406 -0.02345 -0.007103 0.05933
-0.4167 0.0906 0.1031 -0.01102 -0.03778 -0.0657 -0.04544 -0.0705
0.04544 -0.00396 0.1054 -0.1595 -0.003668 -0.00971 0.01025 -0.04465
0.09955 -0.0511 -0.01965 -0.0003517 -0.28 0.01906 -0.00683 -0.03622
-0.04352 0.1339 0.07 0.03079 0.113 0.003586 0.01327 -0.00826
0.05862 -0.01329 0.10876 0.2825 -0.1034 0.001221 0.02963 0.0698
0.05145 0.1395 -0.02484 0.1041 0.112 0.0865 -0.0107 0.0701
-0.02654 -0.05316 -0.000787 -0.1414 -0.002508 0.0992 -0.005135 -0.273
0.02374 -0.0714 0.1506 0.07306 0.05405 -0.02979 0.002953 0.003439

model/sconv1.mask_conv2d/Conv2D f2 [96, 1, 1, 96]
00000000: 10b0 121d ce25 8418 3d24 c02a 7224 4aa8
00000010: 3b23 5624 7316 e6ab ce26 e11c 2fa3 bea4
00000020: c730 0cad 5da3 43a1 83aa 4d2a 4224 bd23
00000030: afa9 26ae 7a20 442d dca8 ba22 0d2b 3227
00000040: 3220 01a8 c122 34aa ae27 4ca9 5fa6 df24
00000050: f118 e62c bb1f 702b 93a5 3529 1ea6 68ac
00000060: baa2 faa2 2624 ecb0 79a4 45ab a731 58ad
00000070: f2a7 42a3 a3a5 072c 0b9b 8897 f1aa 1426
00000080: a01e 9c2c 6da6 5daa c3a6 ccac 5a26 3b2c
00000090: 53a8 b22b 1d28 ab1e b012 3730 8e9c dc23
000000a0: 7d28 1ca6 b81d a3a4 732c 30b1 722b 7f30
000000b0: c321 1cae a02a 37a6 ffa1 001f 6d97 b324
000000c0: 1bac e42a 19ac 102c ed25 061e b62a 01ab
000000d0: 482b 2e28 8f94 a8b2 3723 68ac 08ac b021
000000e0: 76aa 3922 d3ac 22a8 1da6 eab0 8223 1728
000000f0: 16a9 8daf 1f24 f52c da25 c696 2030 02a5
00000100: d79d c0a8 ad20 3aa0 97aa e0a9 d1ad d02f
00000110: a42e 3e30 20b3 7e28 21a4 8129 681d eaae
00000120: a1aa 31af 201c 97ae 15a9 781b c2b1 3b31
00000130: d927 58a5 89a9 73ae 8226 da27 01a9 b2b0
00000140: f2a6 3f2c a330 5cb0 98ac ca1c 40ad 2cb0
00000150: 5c26 5da5 bab2 8eae 902c 7c32 aca2 cc2f
00000160: 2232 f82d 16ab c12b 34a5 c8ad df2f 1732
00000170: 75a9 1ab0 371f 662c b2a8 27ac 942c 502d
00000180: 57b1 6428 b517 d2a2 e827 cda8 e823 19ac
00000190: 38a8 3ea7 e81f 3da4 17ad 0b27 3e1d 93a4
000001a0: 0430 c3a6 6eaa 9caa c92c 80ad 4925 4ea0
000001b0: 30ad 7124 32a3 c62e de1c 679e 2f2d cb28
000001c0: 4412 08a7 8c22 ec32 8420 73a1 79ab a931
000001d0: fb24 4e35 c5a5 7031 e126 85ad 61ac e12c
000001e0: b3a8 afac e3a1 d4b1 f1a3 b5a7 1530 e4a9
000001f0: 4e23 46ac 45aa 5f28 fd22 4d98 3db0 fe9f
-0.127 0.00495 0.02267 0.002205 0.01656 0.05273 0.01736 -0.0335
0.01412 0.01694 0.0015745 -0.0617 0.02658 0.004765 -0.01403 -0.01852
0.1493 -0.07886 -0.01438 -0.01028 -0.05087 0.04922 0.01663 0.015114
-0.0444 -0.09607 0.00874 0.0823 -0.03796 0.01314 0.05508 0.0281
0.008194 -0.03128 0.01319 -0.04846 0.03 -0.04138 -0.02489 0.01903
0.002413 0.07654 0.00755 0.0581 -0.02177 0.04068 -0.0239 -0.06885
-0.01314 -0.013626 0.0162 -0.1538 -0.01747 -0.0568 0.1766 -0.0835
-0.03104 -0.014175 -0.02202 0.0629 -0.003439 -0.001839 -0.05423 0.02374
0.00647 0.072 -0.0251 -0.0497 -0.02641 -0.07495 0.02481 0.0661
-0.03378 0.06012 0.03214 0.00651 0.0008163 0.1317 -0.004448 0.01535
0.03506 -0.02386 0.005585 -0.01811 0.0695 -0.1621 0.05817 0.1405
0.01125 -0.09546 0.05176 -0.02428 -0.01171 0.006836 -0.001813 0.01836
-0.06415 0.05383 -0.064 0.0635 0.02315 0.005882 0.05243 -0.05472
0.0569 0.03265 -0.001113 -0.208 0.01409 -0.06885 -0.063 0.01111
-0.05048 0.01215 -0.0754 -0.0323 -0.02388 -0.1536 0.01466 0.03195
-0.03973 -0.118 0.0161 0.07745 0.02286 -0.001654 0.1289 -0.01956
-0.005703 -0.0371 0.00913 -0.008255 -0.05148 -0.0459 -0.0909 0.1221
0.10376 0.1326 -0.2227 0.0351 -0.01613 0.043 0.00528 -0.10803
-0.0518 -0.11237 0.00403 -0.10297 -0.0397 0.003647 -0.1799 0.1635
0.03065 -0.02087 -0.04324 -0.10077 0.02542 0.03067 -0.0391 -0.1467
-0.02713 0.06635 0.1449 -0.1362 -0.0718 0.004677 -0.08203 -0.1304
0.02484 -0.02095 -0.2102 -0.1024 0.0713 0.2026 -0.01303 0.1218
0.1917 0.09326 -0.05536 0.06058 -0.02032 -0.09033 0.123 0.1903
-0.04263 -0.1282 0.007046 0.0687 -0.03668 -0.0649 0.07153 0.083
-0.1669 0.0343 0.001882 -0.01332 0.03088 -0.0375 0.01544 -0.064
-0.03296 -0.02829 0.00772 -0.01656 -0.0795 0.02751 0.00512 -0.01787
0.1255 -0.02641 -0.05023 -0.05164 0.07477 -0.08594 0.02065 -0.00841
-0.08105 0.01735 -0.01405 0.10583 0.004753 -0.006252 0.081 0.03745
0.000765 -0.02747 0.01279 0.2163 0.00882 -0.01064 -0.05838 0.1769
0.01945 0.3315 -0.02254 0.1699 0.02687 -0.08624 -0.0684 0.07623
-0.0367 -0.0732 -0.0115 -0.1821 -0.01551 -0.0301 0.1276 -0.04602
0.01427 -0.0668 -0.04898 0.03415 0.01365 -0.0021 -0.1324 -0.007805
