cr/crfill/networks/contextual_update.tflite (tflite, 685056 bytes, 9 tensors)

model_1/sconv2/BiasAdd;model_1/sconv1.mask_conv2d/Conv2D;model_1/sconv2/Conv2D;model_1/sconv2/BiasAdd/ReadVariableOp/resource f2 [96]
0	0x3375	0.233
1	0x33fd	0.2496
2	0x34ed	0.3079
3	0x3468	0.2754
4	0x356d	0.339
5	0x3434	0.2627
6	0x3275	0.2018
7	0x34b9	0.2952
8	0x346f	0.277
9	0x34e8	0.3066
10	0x352e	0.3237
11	0x3557	0.3337
12	0x369a	0.4126
13	0x3483	0.282
14	0x3674	0.4033
15	0x30bb	0.1478
16	0x3407	0.2517
17	0x358f	0.3474
18	0x35b9	0.3577
19	0x3237	0.1942
20	0x33f2	0.2483
21	0x3472	0.2778
22	0x34c3	0.2976
23	0x3027	0.1298
24	0x321b	0.1908
25	0x3150	0.166
26	0x3152	0.1663
27	0x3583	0.3445
28	0x354e	0.3315
29	0x31fe	0.1873
30	0x32ec	0.2163
31	0x314c	0.1655
32	0x3624	0.3838
33	0x324a	0.1965
34	0x318a	0.1731
35	0x3136	0.1628
36	0x32d3	0.2133
37	0x2d2a	0.0807
38	0x3081	0.1407
39	0x3589	0.346
40	0x3410	0.254
41	0x350e	0.316
42	0x336a	0.2317
43	0x3318	0.2217
44	0x3416	0.2554
45	0x3260	0.1992
46	0x37df	0.492
47	0x337a	0.2336
48	0x342d	0.261
49	0x3555	0.3333
50	0x3653	0.3953
51	0x3405	0.2512
52	0x3647	0.3923
53	0x3106	0.157
54	0x3460	0.2734
55	0x346c	0.2764
56	0x30aa	0.1458
57	0x340f	0.2537
58	0x341c	0.2568
59	0x3231	0.1935
60	0x344d	0.2688
61	0x3576	0.3413
62	0x3267	0.2001
63	0x341d	0.257
64	0x31b3	0.1781
65	0x3305	0.2194
66	0x3252	0.1975
67	0x32a5	0.2076
68	0x3102	0.1565
69	0x34b6	0.2944
70	0x313d	0.1637
71	0x3693	0.411
72	0x34ec	0.3076
73	0x2f95	0.11847
74	0x32bc	0.2104
75	0x35a3	0.3523
76	0x3155	0.1666
77	0x342d	0.261
78	0x3553	0.3328
79	0x2f21	0.1114
80	0x3441	0.2659
81	0x35ac	0.3545
82	0x322b	0.1927
83	0x32e3	0.2152
84	0x34e2	0.3052
85	0x34d4	0.3018
86	0x351e	0.3198
87	0x3181	0.172
88	0x3164	0.1685
89	0x33a2	0.2385
90	0x32bc	0.2104
91	0x34da	0.3032
92	0x336e	0.2322
93	0x3652	0.395
94	0x32cb	0.2123
95	0x3098	0.1436

model_1/sconv2.mask_conv2d/BiasAdd;model_1/sconv1.mask_conv2d/Conv2D;model_1/sconv2.mask_conv2d/Conv2D;model_1/sconv2.mask_conv2d/BiasAdd/ReadVariableOp/resource f2 [96]
0	0xa416	-0.01596
1	0x2ad8	0.05347
2	0x315a	0.1672
3	0x26f8	0.02722
4	0x2e04	0.094
5	0x2aa3	0.05185
6	0x2863	0.03427
7	0x2ac6	0.05292
8	0x2c0d	0.0633
9	0x2688	0.02551
10	0x2b24	0.0558
11	0x2858	0.03394
12	0xa528	-0.02014
13	0x2b78	0.05835
14	0x2d69	0.08453
15	0x2eff	0.1093
16	0x2f87	0.1176
17	0xaa94	-0.0514
18	0x2c74	0.0696
19	0x2c7b	0.07
20	0xa8d3	-0.0377
21	0x2dd0	0.0908
22	0x3056	0.1355
23	0x2825	0.03238
24	0x292b	0.04037
25	0x2cd3	0.0754
26	0x313a	0.1633
27	0x2b03	0.05478
28	0x2061	0.00855
29	0x2db6	0.08923
30	0x255d	0.02095
31	0x2add	0.05362
32	0x2b6d	0.058
33	0x2d7b	0.08563
34	0x2abf	0.0527
35	0x273c	0.02826
36	0x9db8	-0.005585
37	0x2605	0.02351
38	0x2a9d	0.05167
39	0x29b7	0.04465
40	0x24d6	0.01889
41	0x2a86	0.05096
42	0x2a08	0.04712
43	0x3199	0.1749
44	0x2aaa	0.05206
45	0x2ca4	0.0725
46	0x2d65	0.0843
47	0x3005	0.1256
48	0x2762	0.02884
49	0x9e02	-0.005867
50	0x25f9	0.02333
51	0x1640	0.001526
52	0x20ef	0.009636
53	0x2cdb	0.07587
54	0x2c47	0.06683
55	0x2b55	0.05728
56	0x2d52	0.0831
57	0x2e0e	0.0946
58	0x2a6a	0.0501
59	0x2648	0.02454
60	0x2f67	0.11566
61	0x2a6f	0.05026
62	0x27c5	0.03035
63	0x2cae	0.0731
64	0x245e	0.01706
65	0x2f8f	0.1181
66	0x2df5	0.0931
67	0x2c28	0.06494
68	0x2813	0.03183
69	0x314f	0.1659
70	0x30cb	0.1498
71	0x2884	0.03528
72	0x2c26	0.0648
73	0x2d92	0.08704
74	0x2f88	0.1177
75	0x2d5d	0.0838
76	0x2a91	0.0513
77	0x1d7d	0.00536
78	0x2c3d	0.0662
79	0x2ed2	0.10657
80	0xa513	-0.01982
81	0x2d8f	0.08685
82	0x2cad	0.07306
83	0x2f13	0.11053
84	0x2ac1	0.05276
85	0x2967	0.0422
86	0x24e9	0.01918
87	0x2b8f	0.05905
88	0x2b06	0.05487
89	0x211b	0.00997
90	0x9fbb	-0.00755
91	0xa39a	-0.01485
92	0x2cf7	0.0776
93	0x289f	0.0361
94	0x270c	0.02753
95	0x2db8	0.08936

model_1/sconv1/BiasAdd;model_1/sconv1.mask_conv2d/Conv2D;model_1/sconv1/Conv2D;model_1/sconv1/BiasAdd/ReadVariableOp/resource f2 [96]
0	0x2c42	0.0665
1	0x3182	0.1721
2	0x1fd5	0.00765
3	0x33ab	0.2396
4	0x3542	0.3286
5	0x2b65	0.05777
6	0xa99d	-0.04385
7	0xa449	-0.01674
8	0x2a3c	0.0487
9	0x2c32	0.06555
10	0x2e2a	0.0963
11	0xab72	-0.05817
12	0x2853	0.03378
13	0x31b1	0.1779
14	0x3442	0.266
15	0x30ee	0.154
16	0xae8e	-0.1024
17	0x2ece	0.1063
18	0xaaba	-0.05255
19	0x278f	0.02953
20	0xa68f	-0.02562
21	0x3220	0.1914
22	0xa5b2	-0.02225
23	0x2dd0	0.0908
24	0x2523	0.02007
25	0xae43	-0.09784
26	0x29b8	0.04468
27	0x2f67	0.11566
28	0x3334	0.2251
29	0x2990	0.04346
30	0x2d23	0.08026
31	0x2d98	0.0874
32	0x3297	0.2059
33	0x2fa0	0.11914
34	0x9901	-0.002443
35	0xa96a	-0.0423
36	0x29c7	0.04514
37	0x2f94	0.1184
38	0x3123	0.1605
39	0x2a88	0.05103
40	0x2e72	0.1007
41	0x32f5	0.2174
42	0x343a	0.2642
43	0xacfe	-0.078
44	0xa7c4	-0.03033
45	0x34cd	0.3
46	0x3414	0.255
47	0x28c9	0.03738
48	0xa3f4	-0.01553
49	0xa662	-0.02493
50	0x33af	0.2401
51	0x2cf3	0.07733
52	0x32b7	0.2098
53	0xa81b	-0.03207
54	0x2ac5	0.0529
55	0xa794	-0.0296
56	0x327c	0.2026
57	0xb06b	-0.1381
58	0xa214	-0.01187
59	0x2ff6	0.1244
60	0x31d4	0.1821
61	0x3002	0.1252
62	0x2c2b	0.0651
63	0x2ae4	0.05383
64	0xa790	-0.02954
65	0x34e4	0.3057
66	0xa576	-0.02133
67	0xac9d	-0.0721
68	0x32ba	0.2102
69	0x310b	0.1576
70	0xb029	-0.13
71	0xacb8	-0.0737
72	0x2bc9	0.06082
73	0x29a9	0.04422
74	0x2ce0	0.0762
75	0x2801	0.03128
76	0x2f0d	0.11017
77	0xa034	-0.00821
78	0xad59	-0.08356
79	0x2dfc	0.0935
80	0x2ed8	0.10693
81	0x34b5	0.2942
82	0x30fb	0.1556
83	0x33e0	0.2461
84	0xa29f	-0.01293
85	0xb06a	-0.138
86	0x3465	0.2747
87	0x993c	-0.002556
88	0x248f	0.0178
89	0x25ce	0.02267
90	0xa450	-0.01685
91	0x30c0	0.1484
92	0x3103	0.1566
93	0x33fa	0.2493
94	0x2ba7	0.05978
95	0xac1a	-0.0641

model_1/sconv1.mask_conv2d/BiasAdd;model_1/sconv1.mask_conv2d/Conv2D;model_1/sconv1.mask_conv2d/BiasAdd/ReadVariableOp/resource f2 [96]
0	0x3007	0.1259
1	0x2dc4	0.0901
2	0x2e16	0.0951
3	0x2d22	0.0802
4	0x2f72	0.11633
5	0x9f5b	-0.007183
6	0x34bb	0.2957
7	0x28e2	0.03815
8	0x2cad	0.07306
9	0x2e7a	0.1012
10	0x291e	0.03998
11	0xada0	-0.0879
12	0x2991	0.0435
13	0x2a86	0.05096
14	0x2ec2	0.1056
15	0x2f1a	0.11096
16	0xa6e1	-0.02687
17	0x1442	0.0010395
18	0x2897	0.03586
19	0x2a1f	0.04782
20	0x298b	0.0433
21	0x2966	0.04218
22	0xaa08	-0.04712
23	0xa86d	-0.03458
24	0x2c48	0.0669
25	0x319b	0.1752
26	0x263d	0.02437
27	0x302e	0.1306
28	0x2faf	0.12006
29	0x922b	-0.000753
30	0x260b	0.0236
31	0x2ab2	0.0523
32	0x2e9d	0.10333
33	0x273d	0.02827
34	0xac99	-0.07184
35	0x2523	0.02007
36	0x2916	0.03973
37	0x2db8	0.08936
38	0x2ecf	0.1064
39	0x2ce8	0.07666
40	0x2b5c	0.0575
41	0x2ed4	0.1067
42	0x2fe7	0.1235
43	0x3400	0.25
44	0x2cbb	0.0739
45	0x2f64	0.1155
46	0x2dba	0.0895
47	0x1daa	0.00553
48	0x2280	0.012695
49	0x1c06	0.00393
50	0x3203	0.1879
51	0x269a	0.02579
52	0x27e4	0.03082
53	0x2880	0.03516
54	0xaabd	-0.05264
55	0xa9d2	-0.04547
56	0x3150	0.166
57	0x3129	0.1613
58	0xa817	-0.03195
59	0x2d46	0.0824
60	0x2ee8	0.1079
61	0x2c67	0.0688
62	0x2adb	0.05356
63	0x300f	0.1268
64	0xa586	-0.02158
65	0x3132	0.1624
66	0x299f	0.0439
67	0x9987	-0.002699
68	0x2a7e	0.05072
69	0x2834	0.03284
70	0x965d	-0.001554
71	0x2691	0.02565
72	0x2927	0.04025
73	0x2db2	0.089
74	0x2f49	0.11383
75	0x29a0	0.04395
76	0x2deb	0.09247
77	0x2ffa	0.12463
78	0x309d	0.1442
79	0x2e00	0.09375
80	0x2733	0.02812
81	0x309e	0.1443
82	0x2edd	0.10724
83	0x2f3c	0.11304
84	0x1d50	0.005188
85	0x2e27	0.0961
86	0x297e	0.0429
87	0x99cc	-0.00283
88	0x9d07	-0.00491
89	0x2c67	0.0688
90	0x2d7f	0.0859
91	0x2d16	0.07947
92	0x2b90	0.05908
93	0x2d78	0.08545
94	0x2891	0.03568
95	0x33d9	0.2452

model_1/tf.compat.v1.nn.conv2d_4/Conv2D1 f2 [1, 3, 3, 1]
0	0x3c00	1.0
1	0x0000	0.0
2	0x0000	0.0
3	0x0000	0.0
4	0x3c00	1.0
5	0x0000	0.0
6	0x0000	0.0
7	0x0000	0.0
8	0x3c00	1.0

model_1/sconv2/Conv2D f2 [96, 3, 3, 96]
0	0x2e69	0.10016
1	0x2c49	0.06696
2	0xb0e8	-0.1533
3	0x1a9c	0.003227
4	0x2e12	0.09485
5	0xad49	-0.0826
6	0xb129	-0.1613
7	0x2e67	0.10004
8	0x2ffa	0.12463
9	0x2b9d	0.05948
10	0x2f15	0.11066
11	0x280a	0.03156
12	0x25af	0.0222
13	0xaf06	-0.10974
14	0xad04	-0.07837
15	0x9e0e	-0.005913
16	0x2be8	0.06177
17	0x285c	0.03406
18	0xa6ad	-0.02608
19	0x255a	0.0209
20	0x2c90	0.0713
21	0xa5b9	-0.02235
22	0x2c08	0.063
23	0xabd5	-0.0612
24	0xb084	-0.1411
25	0xae8f	-0.1025
26	0x2e3d	0.0975
27	0x252d	0.02022
28	0x1e15	0.00594
29	0xac69	-0.0689
30	0x2c2b	0.0651
31	0xacb4	-0.0735
32	0x2971	0.0425
33	0x283b	0.03305
34	0x9815	-0.001993
35	0x2b27	0.05588
36	0x2a6f	0.05026
37	0xad85	-0.08624
38	0x22ea	0.013504
39	0xada0	-0.0879
40	0x2549	0.02065
41	0xa59a	-0.02188
42	0x2734	0.02814
43	0xad95	-0.0872
44	0xac4e	-0.06726
45	0x2877	0.03488
46	0x2b58	0.05737
47	0x156b	0.001323
48	0xa704	-0.0274
49	0xa1b2	-0.01112
50	0x1a60	0.003113
51	0x1cc7	0.004665
52	0x2ade	0.05365
53	0x2734	0.02814
54	0x2a82	0.05084
55	0x2535	0.02034
56	0xad76	-0.0853
57	0xa89e	-0.03607
58	0x1e60	0.006226
59	0xa86c	-0.03455
60	0xaa2a	-0.04816
61	0x2dad	0.0887
62	0x0d6d	0.0003312
63	0xa21a	-0.01192
64	0xa4fb	-0.01945
65	0xa059	-0.00849
66	0x2d81	0.086
67	0xa933	-0.04062
68	0x2486	0.01767
69	0xad0f	-0.07904
70	0xaf71	-0.1163
71	0xaef2	-0.1085
72	0x20e3	0.009544
73	0xa9fe	-0.0468
74	0xa87f	-0.03513
75	0xad73	-0.08514
76	0xa395	-0.01481
77	0x22d2	0.01332
78	0xb157	-0.1669
79	0xa73a	-0.02823
80	0xad12	-0.0792
81	0xa147	-0.01031
82	0x2b66	0.0578
83	0xac4f	-0.0673
84	0xab64	-0.05774
85	0xae63	-0.0998
86	0x2f68	0.1157
87	0xadf2	-0.0929
88	0xa433	-0.0164
89	0x9bd1	-0.003817
90	0x2c28	0.06494
91	0xaaa6	-0.05194
92	0x9fc3	-0.00758
93	0x233b	0.01412
94	0x24fa	0.01944
95	0xb289	-0.2042
96	0x2e30	0.0967
97	0x2ac2	0.0528
98	0xaeed	-0.1082
99	0x2852	0.03375
100	0x2e44	0.0979
101	0xa964	-0.0421
102	0xb306	-0.2195
103	0x2599	0.02187
104	0x3056	0.1355
105	0xa622	-0.02396
106	0x2d4a	0.08264
107	0x2488	0.0177
108	0x939f	-0.0009303
109	0xaaf1	-0.05423
110	0xa6b0	-0.02612
111	0xa021	-0.008064
112	0x1cb5	0.004597
113	0x2ddf	0.09174
114	0x9c5e	-0.004265
115	0x2f0c	0.1101
116	0x2d3c	0.0818
117	0x2d93	0.0871
118	0x2a31	0.04837
119	0x22b3	0.013084
120	0xb144	-0.1646
121	0xa362	-0.01442
122	0x3165	0.1686
123	0x25a4	0.02203
124	0x2508	0.01965
125	0x1c3a	0.004128
126	0x23d2	0.015274
127	0x2bb4	0.06018
128	0x1649	0.001534
129	0x2db6	0.08923
130	0xa328	-0.01398
131	0x300e	0.1267
132	0x29a2	0.044
133	0x2459	0.01698
134	0x2861	0.0342
135	0xa6d6	-0.0267
136	0x0355	5.084e-05
137	0x9612	-0.001482
138	0x2c30	0.0654
139	0xb098	-0.1436
140	0x1e5b	0.006207
141	0x2143	0.01028
142	0x2a6a	0.0501
143	0x1d4e	0.00518
144	0xa972	-0.04254
145	0xaa15	-0.04752
146	0xa8d8	-0.03784
147	0x1b77	0.003645
148	0x26dd	0.02681
149	0x2e10	0.0947
150	0x28a2	0.0362
151	0x24ed	0.01924
152	0x2619	0.02382
153	0xb065	-0.1373
154	0x2aec	0.05408
155	0x2c0d	0.0633
156	0x207e	0.00877
157	0x295d	0.0419
158	0x2605	0.02351
159	0x28fd	0.03897
160	0xa631	-0.02419
161	0x2ba2	0.05963
162	0x2dc0	0.08984
163	0xaa09	-0.04715
164	0x2968	0.04224
165	0x2578	0.02136
166	0xa7c9	-0.03041
167	0xaff3	-0.1242
168	0x2849	0.03348
169	0xa968	-0.04224
170	0x2aed	0.0541
171	0x2650	0.02466
172	0x9cb5	-0.004597
173	0x2f47	0.1137
174	0xafd6	-0.12244
175	0x2901	0.0391
176	0x2189	0.01081
177	0x2c61	0.0684
178	0x2e17	0.09515
179	0x1dbe	0.005608
180	0x1f04	0.00685
181	0xb069	-0.1378
182	0x3016	0.1277
183	0xaa51	-0.04935
184	0x179f	0.001861
185	0xaa48	-0.04907
186	0x2d9d	0.0877
187	0xa6bc	-0.0263
188	0x9a1e	-0.002987
189	0x3048	0.1338
190	0x2dae	0.08875
191	0xb3af	-0.2401
192	0x303f	0.1327
193	0x2df7	0.0932
194	0xa44e	-0.01682
195	0x2b1c	0.05554
196	0x30a6	0.1453
197	0xa762	-0.02884
198	0xb22b	-0.1927
199	0x30a7	0.1454
200	0x3268	0.2002
201	0x224b	0.01229
202	0x2975	0.04263
203	0x2b69	0.0579
204	0xa527	-0.02013
205	0x9f2c	-0.007004
206	0x1d49	0.00516
207	0x2046	0.00835
208	0x2cc0	0.0742
209	0x2bf6	0.0622
210	0x2815	0.0319
211	0x2370	0.01453
212	0x2885	0.0353
213	0x2af1	0.05423
214	0x1d8f	0.00543
215	0x28bb	0.03696
216	0xb1cd	-0.1813
217	0xa85f	-0.03415
218	0x311c	0.1597
219	0x25ae	0.02219
220	0x2cc0	0.0742
221	0x9f94	-0.0074
222	0x23f4	0.01553
223	0x2920	0.04004
224	0x2d51	0.08307
225	0x2be3	0.0616
226	0x274e	0.02853
227	0x2906	0.03925
228	0x2c9b	0.07196
229	0xa91a	-0.03986
230	0x2163	0.01052
231	0x2865	0.03433
232	0x2b82	0.05865
233	0x243e	0.01657
234	0x2dc9	0.0904
235	0xb21f	-0.1913
236	0x2e24	0.09595
237	0x26a2	0.02591
238	0x300e	0.1267
239	0xa935	-0.04068
240	0xa6bc	-0.0263
241	0x1ced	0.00481
242	0x2944	0.04114
243	0x2a66	0.05
244	0x2d33	0.08124
245	0x290e	0.0395
246	0x9d86	-0.005394
247	0x2d25	0.0804
248	0x2573	0.02129
249	0xafba	-0.1207
250	0x264c	0.0246
251	0x2dfc	0.0935
252	0x2a87	0.051
253	0x2473	0.01738
254	0x2e35	0.097
255	0x2fad	0.11993

model_1/sconv2.mask_conv2d/Conv2D f2 [96, 1, 1, 96]
0	0xad42	-0.08215
1	0xa48e	-0.01779
2	0x2514	0.01984
3	0xac7c	-0.07007
4	0xa936	-0.0407
5	0xaaf8	-0.05444
6	0x28a6	0.03632
7	0xa6c7	-0.02647
8	0xab1f	-0.05563
9	0xaaa4	-0.05188
10	0xa244	-0.01224
11	0x298e	0.0434
12	0x2910	0.03955
13	0x2ae9	0.054
14	0xac50	-0.0674
15	0xa8b8	-0.03687
16	0x13c7	0.0009494
17	0xad85	-0.08624
18	0x2cb4	0.0735
19	0x28ca	0.0374
20	0xab47	-0.05685
21	0x28f2	0.03864
22	0xaba5	-0.05972
23	0x2021	0.008064
24	0x23c5	0.015175
25	0x23ed	0.01548
26	0xa8f6	-0.03876
27	0xa3ca	-0.01521
28	0x29d6	0.0456
29	0xadf9	-0.0933
30	0x28ec	0.03845
31	0x2993	0.04355
32	0x1ca5	0.004536
33	0xa1cb	-0.011314
34	0x2205	0.01176
35	0xa556	-0.02084
36	0x9516	-0.001242
37	0xa74c	-0.0285
38	0x2386	0.014694
39	0x2816	0.03192
40	0x2155	0.010414
41	0xab40	-0.05664
42	0xb049	-0.1339
43	0xaaf3	-0.0543
44	0x11b9	0.0006986
45	0xa576	-0.02133
46	0xa5b8	-0.02234
47	0xa519	-0.01991
48	0xae81	-0.1016
49	0x1e7f	0.006344
50	0xa38a	-0.014725
51	0x2841	0.03323
52	0xada1	-0.08795
53	0xa85e	-0.03412
54	0x2ba6	0.05975
55	0xa8d2	-0.03766
56	0xa04f	-0.008415
57	0x26c3	0.02641
58	0x9b01	-0.00342
59	0x29e6	0.04608
60	0xaa56	-0.0495
61	0x272a	0.02798
62	0xa4b4	-0.01837
63	0xa9ca	-0.04523
64	0x28b3	0.0367
65	0xa72d	-0.02803
66	0xad2f	-0.081
67	0x24d4	0.01886
68	0x2328	0.01398
69	0xac77	-0.06976
70	0x2aec	0.05408
71	0x2883	0.03525
72	0x2156	0.01042
73	0xb161	-0.1681
74	0xa968	-0.04224
75	0xadb8	-0.08936
76	0xab76	-0.0583
77	0x2962	0.04205
78	0x2ea9	0.10406
79	0xaca4	-0.0725
80	0x2a8b	0.05112
81	0xa447	-0.01671
82	0xa802	-0.0313
83	0x005c	5.5e-06
84	0xa8f5	-0.03873
85	0x25f6	0.02328
86	0xac74	-0.0696
87	0x260d	0.02364
88	0xa350	-0.01428
89	0x28b6	0.0368
90	0x2e7f	0.1015
91	0xa983	-0.04306
92	0x98fa	-0.00243
93	0xadac	-0.0886
94	0xad72	-0.0851
95	0x27ca	0.03043
96	0xac07	-0.0629
97	0x2aa3	0.05185
98	0xa6be	-0.02634
99	0x2421	0.01613
100	0xadc9	-0.0904
101	0xa204	-0.01175
102	0xa8e5	-0.03824
103	0xac5a	-0.068
104	0xa89b	-0.03598
105	0xac04	-0.06274
106	0xb095	-0.1432
107	0x2816	0.03192
108	0xa51f	-0.02
109	0xaad1	-0.05325
110	0xaa26	-0.04803
111	0xa9bf	-0.0449
112	0xa536	-0.02036
113	0x1f75	0.007282
114	0xa8e7	-0.0383
115	0xaabd	-0.05264
116	0xb036	-0.1316
117	0x25da	0.02286
118	0xac11	-0.06354
119	0x2b6b	0.05795
120	0xa14b	-0.01034
121	0xad0a	-0.07874
122	0xad3e	-0.0819
123	0x1a39	0.003038
124	0x2ef7	0.1088
125	0xa7b4	-0.03009
126	0xaf8f	-0.1181
127	0xa60c	-0.02362
128	0xa071	-0.008675
129	0x2011	0.00794
130	0xa970	-0.04248
131	0xa883	-0.03525
132	0xa8ca	-0.0374
133	0x2cde	0.07605
134	0x2d48	0.0825
135	0xab0d	-0.05508
136	0x2ea1	0.1036
137	0x21c1	0.01124
138	0xa26c	-0.01254
139	0xae28	-0.0962
140	0x299e	0.04388
141	0xaf41	-0.11334
142	0x2826	0.0324
143	0xaa19	-0.04764
144	0xa5f1	-0.02321
145	0xa6b0	-0.02612
146	0xa63c	-0.02435
147	0x29bd	0.04483
148	0xaa8c	-0.05115
149	0xae10	-0.0947
150	0xaa63	-0.0499
151	0xacce	-0.0751
152	0xab43	-0.05673
153	0xaf49	-0.11383
154	0x242a	0.01627
155	0x20bd	0.009254
156	0x29b4	0.04456
157	0x1ef7	0.0068
158	0x2dde	0.0917
159	0xad44	-0.0823
160	0xa826	-0.0324
161	0x2644	0.02448
162	0xb27b	-0.2025
163	0xac78	-0.0698
164	0x172b	0.00175
165	0xac54	-0.0676
166	0x925f	-0.0007777
167	0x1f03	0.006847
168	0x1fb7	0.007534
169	0xad12	-0.0792
170	0x2fa9	0.1197
171	0x2835	0.03287
172	0xad6d	-0.0848
173	0x2b01	0.05472
174	0x1c2b	0.00407
175	0x9696	-0.001608
176	0x2a7e	0.05072
177	0x25b6	0.02231
178	0xac9c	-0.072
179	0xa0d3	-0.00942
180	0xa7fb	-0.03117
181	0xa776	-0.02914
182	0xafa6	-0.1195
183	0x208a	0.008865
184	0xa8cc	-0.03748
185	0x1c5f	0.00427
186	0x2adc	0.0536
187	0x234b	0.014244
188	0x2274	0.0126
189	0xa8b0	-0.03662
190	0xab55	-0.05728
191	0xa67c	-0.02533
192	0xa64f	-0.02464
193	0x2795	0.02962
194	0xa3ad	-0.01499
195	0x2e7b	0.10126
196	0x3004	0.1255
197	0x28f0	0.03857
198	0xaf55	-0.11456
199	0xa6ac	-0.02606
200	0xa9e3	-0.046
201	0x270a	0.0275
202	0xa094	-0.00894
203	0xabe9	-0.0618
204	0x27a8	0.0299
205	0x2f31	0.11237
206	0x255d	0.02095
207	0x2b60	0.05762
208	0x29b2	0.0445
209	0x9ee3	-0.006725
210	0xaab6	-0.05243
211	0x2ee7	0.10785
212	0x2c12	0.0636
213	0x2bca	0.06085
214	0xa4f7	-0.0194
215	0xa026	-0.0081
216	0xa661	-0.02492
217	0x2884	0.03528
218	0x24be	0.01852
219	0xa3c8	-0.0152
220	0x2e65	0.0999
221	0xae06	-0.0941
222	0x9f53	-0.007153
223	0x9d41	-0.00513
224	0x3112	0.1584
225	0x25ef	0.02318
226	0xa403	-0.01567
227	0x2ce0	0.0762
228	0x26de	0.02682
229	0x2351	0.01429
230	0x2df9	0.0933
231	0xa86f	-0.03464
232	0x1b47	0.003553
233	0x2c8f	0.0712
234	0x21d5	0.01139
235	0xb04d	-0.1344
236	0xaa54	-0.04944
237	0x2a7d	0.0507
238	0x2af2	0.05426
239	0x238f	0.01476
240	0xacc8	-0.0747
241	0xa817	-0.03195
242	0x2c9d	0.0721
243	0x289d	0.03604
244	0x223c	0.01218
245	0xa1f1	-0.011604
246	0x2cd7	0.0756
247	0x230f	0.01379
248	0x2bd8	0.06128
249	0xa5e4	-0.02301
250	0x21a2	0.011
251	0xa434	-0.01642
252	0x1ce7	0.004787
253	0x2322	0.01393
254	0x2cdb	0.07587
255	0x28c7	0.03732

model_1/sconv1/Conv2D f2 [96, 5, 5, 96]
0	0xa9ec	-0.04626
1	0xad5b	-0.0837
2	0xacd8	-0.0757
3	0x2ee5	0.1077
4	0xa969	-0.04227
5	0x2f4d	0.1141
6	0xa36c	-0.014496
7	0xa16f	-0.01061
8	0x2965	0.04214
9	0xa854	-0.0338
10	0xa617	-0.02379
11	0xa472	-0.01736
12	0x9591	-0.001359
13	0x2475	0.01741
14	0xa022	-0.00807
15	0x1a8a	0.003193
16	0xa980	-0.04297
17	0xac64	-0.0686
18	0xa735	-0.02815
19	0xaaa5	-0.0519
20	0xadb3	-0.08905
21	0x2369	0.01447
22	0x29a1	0.04398
23	0xa8a8	-0.03638
24	0x26ce	0.02658
25	0xa618	-0.0238
26	0xa7d6	-0.03061
27	0x2a51	0.04935
28	0xa713	-0.02763
29	0x1950	0.002594
30	0xafec	-0.1238
31	0xa950	-0.0415
32	0xad8e	-0.0868
33	0x260e	0.02365
34	0x9419	-0.001
35	0xacb1	-0.0733
36	0xa55b	-0.02092
37	0x2bbd	0.06046
38	0xafa0	-0.11914
39	0xa511	-0.01979
40	0x284d	0.0336
41	0xab82	-0.05865
42	0xa185	-0.01078
43	0x2a06	0.04706
44	0xa439	-0.0165
45	0xa974	-0.0426
46	0x26f3	0.02715
47	0x2b9c	0.05945
48	0xa901	-0.0391
49	0x2ef5	0.1087
50	0xaeec	-0.10815
51	0xa149	-0.01032
52	0x286c	0.03455
53	0x1d56	0.00521
54	0xa9ab	-0.04428
55	0xac50	-0.0674
56	0xae54	-0.0989
57	0x2c84	0.07056
58	0xa6cb	-0.02654
59	0x2518	0.0199
60	0x2c05	0.0628
61	0xa877	-0.03488
62	0xac1f	-0.0644
63	0x22d6	0.01335
64	0xa842	-0.03326
65	0x2c5e	0.06824
66	0xa76b	-0.02898
67	0xadac	-0.0886
68	0xa636	-0.02426
69	0xa615	-0.02376
70	0xa53e	-0.02048
71	0x1fd8	0.00766
72	0x2ce2	0.0763
73	0xac29	-0.065
74	0xad86	-0.0863
75	0xa570	-0.02124
76	0x287f	0.03513
77	0xad68	-0.0845
78	0xa195	-0.0109
79	0xa85f	-0.03415
80	0x204d	0.0084
81	0x26f9	0.02724
82	0x2bbc	0.06042
83	0x2aac	0.05212
84	0x2548	0.02063
85	0x25d1	0.02272
86	0xadac	-0.0886
87	0xaa8b	-0.05112
88	0xa55f	-0.02098
89	0xad39	-0.0816
90	0x2a53	0.0494
91	0x2c12	0.0636
92	0xac39	-0.066
93	0x1cc2	0.004646
94	0xae2f	-0.0966
95	0x23c2	0.01515
96	0xaa67	-0.05002
97	0xace8	-0.07666
98	0x2e59	0.0992
99	0x2cc2	0.07434
100	0xab41	-0.05667
101	0x2b87	0.0588
102	0xa506	-0.01962
103	0x22da	0.01338
104	0x2920	0.04004
105	0xaf5c	-0.115
106	0x29ed	0.0463
107	0x279f	0.02977
108	0xa51e	-0.01999
109	0xa55c	-0.02094
110	0x2b95	0.05923
111	0xae56	-0.099
112	0x28cd	0.0375
113	0xad5f	-0.0839
114	0xa3e3	-0.0154
115	0x2616	0.02377
116	0xa785	-0.02937
117	0x205a	0.0085
118	0x302a	0.1301
119	0x2ed9	0.107
120	0x2c96	0.07166
121	0x224c	0.0123
122	0x1c26	0.00405
123	0x2b2d	0.05606
124	0xac54	-0.0676
125	0x2ded	0.0926
126	0xacde	-0.07605
127	0xaee0	-0.1074
128	0xad6a	-0.0846
129	0x30ab	0.1459
130	0x0079	7.2e-06
131	0xa95c	-0.04187
132	0x2cc6	0.0746
133	0x2816	0.03192
134	0xb044	-0.1333
135	0x297f	0.04294
136	0x2810	0.03174
137	0xa8b2	-0.03668
138	0x1ee0	0.006714
139	0x303d	0.1324
140	0x2468	0.01721
141	0xaa60	-0.0498
142	0x308f	0.1425
143	0x2840	0.0332
144	0x2ab4	0.05237
145	0x2c92	0.0714
146	0xac15	-0.0638
147	0x2d7b	0.08563
148	0x2b3c	0.05652
149	0x2e29	0.09625
150	0xa770	-0.02905
151	0xab08	-0.05493
152	0xa879	-0.03494
153	0xa3e0	-0.01538
154	0xa573	-0.02129
155	0x2a99	0.05154
156	0x2b88	0.05884
157	0xa8bf	-0.03708
158	0xaf0c	-0.1101
159	0x297e	0.0429
160	0x2da3	0.0881
161	0x2de8	0.0923
162	0xa125	-0.01005
163	0xb104	-0.1567
164	0x2bc1	0.06058
165	0x942f	-0.001021
166	0x25bd	0.02242
167	0x2b22	0.05573
168	0x298e	0.0434
169	0xac5e	-0.06824
170	0xab1e	-0.0556
171	0x24e9	0.01918
172	0xa513	-0.01982
173	0x2874	0.0348
174	0xacc6	-0.0746
175	0x9f64	-0.007217
176	0x9f6d	-0.00725
177	0x2a3a	0.04865
178	0x2da3	0.0881
179	0x2b86	0.05878
180	0x2d8d	0.08673
181	0x29a8	0.0442
182	0xaec6	-0.10583
183	0xadb2	-0.089
184	0x9388	-0.0009193
185	0xace2	-0.0763
186	0x2b0e	0.0551
187	0x2e9a	0.10315
188	0xac57	-0.0678
189	0xa914	-0.03967
190	0xaf14	-0.1106
191	0xa391	-0.01478
192	0xae2b	-0.0964
193	0xa990	-0.04346
194	0x2d7a	0.0856
195	0x2c48	0.0669
196	0x24f4	0.01935
197	0x2c07	0.0629
198	0x1ced	0.00481
199	0xa8ed	-0.03848
200	0x273b	0.02824
201	0xaa93	-0.05136
202	0x233e	0.014145
203	0x219b	0.01095
204	0xa4ea	-0.0192
205	0xaa51	-0.04935
206	0x2c72	0.06946
207	0xae74	-0.1008
208	0x2c48	0.0669
209	0xac26	-0.0648
210	0xa573	-0.02129
211	0x1c7c	0.00438
212	0xa8f0	-0.03857
213	0xad36	-0.0814
214	0x2e45	0.09796
215	0xa642	-0.02444
216	0x279f	0.02977
217	0xa26b	-0.012535
218	0xa80a	-0.03156
219	0x2b49	0.05692
220	0xadab	-0.08856
221	0x193b	0.002554
222	0xadc0	-0.08984
223	0xab9d	-0.05948
224	0xac55	-0.0677
225	0x1f60	0.007202
226	0x2aa8	0.052
227	0xac25	-0.06476
228	0x290e	0.0395
229	0x2c50	0.0674
230	0xaf71	-0.1163
231	0x294f	0.04147
232	0xa857	-0.0339
233	0xa043	-0.00832
234	0xa878	-0.0349
235	0x2d0f	0.07904
236	0x16f0	0.001694
237	0xad00	-0.0781
238	0xa511	-0.01979
239	0x2d5b	0.0837
240	0x2538	0.02039
241	0x2d59	0.08356
242	0xaea2	-0.10364
243	0x2f83	0.1174
244	0x24ec	0.01923
245	0x2bc1	0.06058
246	0xab4f	-0.0571
247	0xab43	-0.05673
248	0xae0f	-0.09467
249	0x1cd0	0.0047
250	0x9d72	-0.005318
251	0x1c9f	0.004513
252	0x2b6f	0.05807
253	0xa929	-0.0403
254	0xac92	-0.0714
255	0x2b24	0.0558

model_1/sconv1.mask_conv2d/Conv2D f2 [96, 1, 1, 96]
0	0xabfa	-0.06232
1	0xac3b	-0.0661
2	0x2c05	0.0628
3	0x276e	0.02902
4	0xa611	-0.0237
5	0x22a1	0.01295
6	0x288b	0.0355
7	0x2320	0.013916
8	0x2d29	0.0806
9	0x2a05	0.04703
10	0x266a	0.02505
11	0x2cc6	0.0746
12	0x2b8c	0.05896
13	0x29b4	0.04456
14	0xa3f2	-0.01552
15	0x2c2b	0.0651
16	0x2995	0.0436
17	0xacd2	-0.0753
18	0x26a0	0.02588
19	0x2625	0.024
20	0x2b9c	0.05945
21	0x2c1b	0.06415
22	0x2a67	0.05002
23	0x2336	0.014084
24	0x2d16	0.07947
25	0xa5ae	-0.02219
26	0x259e	0.02194
27	0xab93	-0.05917
28	0xaab9	-0.05252
29	0x2a58	0.04956
30	0x25b9	0.02235
31	0x2e5a	0.09924
32	0x27f1	0.03102
33	0xa3bb	-0.0151
34	0x2944	0.04114
35	0x2a41	0.04886
36	0x27ba	0.03018
37	0x2ccf	0.07513
38	0x2796	0.02963
39	0x28b7	0.03683
40	0x2cbc	0.074
41	0x2bae	0.06
42	0xa1ae	-0.01109
43	0x2caa	0.0729
44	0x2d60	0.084
45	0x2c5d	0.0682
46	0x27aa	0.02994
47	0x2c3e	0.0663
48	0x2fcb	0.12177
49	0x2856	0.03387
50	0x296c	0.04236
51	0x2f03	0.10956
52	0x2033	0.0082
53	0x2e51	0.0987
54	0xa8ef	-0.03854
55	0xab0c	-0.05505
56	0x2c38	0.0659
57	0x2096	0.00896
58	0x2a61	0.04984
59	0x2dcd	0.09064
60	0x246e	0.0173
61	0x2b62	0.05768
62	0x2eaf	0.10443
63	0x2ce3	0.07635
64	0x2caf	0.0732
65	0x29e2	0.04596
66	0x2ca5	0.0726
67	0x2c89	0.07086
68	0x2fa4	0.1194
69	0x2c32	0.06555
70	0x2633	0.02422
71	0xa7e8	-0.03088
72	0x27b6	0.03012
73	0x2b3a	0.05646
74	0x2965	0.04214
75	0x295a	0.0418
76	0xa14b	-0.01034
77	0x2d33	0.08124
78	0x2972	0.04254
79	0x2b07	0.0549
80	0x27f6	0.0311
81	0x13c2	0.000947
82	0x2ff2	0.12415
83	0x2c04	0.06274
84	0x2c8c	0.07104
85	0x2a58	0.04956
86	0x2cb7	0.07367
87	0x29ea	0.0462
88	0xa5f2	-0.02322
89	0x1fde	0.007683
90	0x1e4c	0.00615
91	0x24b4	0.01837
92	0x29e1	0.04593
93	0x2596	0.02182
94	0xa622	-0.02396
95	0x281d	0.03214
96	0xaeb0	-0.1045
97	0xa9a8	-0.0442
98	0x9ecd	-0.00664
99	0x25ba	0.02237
100	0x2a93	0.05136
101	0x25c2	0.02249
102	0x25d3	0.02275
103	0x22c3	0.01321
104	0xa9ef	-0.04636
105	0x2d43	0.0822
106	0xac86	-0.0707
107	0x9d10	-0.004944
108	0x2639	0.0243
109	0x21d0	0.01135
110	0xadf8	-0.09326
111	0x2e33	0.09686
112	0xacb1	-0.0733
113	0xac43	-0.0666
114	0xa8d5	-0.03775
115	0xa8f5	-0.03873
116	0x2637	0.02428
117	0x21d8	0.01141
118	0x1ee9	0.00675
119	0x2624	0.02399
120	0xa240	-0.01221
121	0xabf0	-0.062
122	0xa9b7	-0.04465
123	0x1d85	0.00539
124	0xae9f	-0.10345
125	0x28c4	0.03723
126	0x1ed6	0.006676
127	0x2f8e	0.11804
128	0xa96a	-0.0423
129	0xa59a	-0.02188
130	0x29ad	0.04434
131	0x269d	0.02583
132	0xab8d	-0.059
133	0x2ce2	0.0763
134	0xac47	-0.06683
135	0xa98b	-0.0433
136	0xab39	-0.05643
137	0x2ec6	0.10583
138	0xa02b	-0.00814
139	0xa80d	-0.03165
140	0x2bc4	0.06067
141	0x31e9	0.1847
142	0x2e64	0.09985
143	0x9f0c	-0.00688
144	0x299e	0.04388
145	0x2ccc	0.07495
146	0x3139	0.1632
147	0x29d3	0.0455
148	0x2e98	0.103
149	0x99e6	-0.00288
150	0xacc6	-0.0746
151	0x9ffd	-0.0078
152	0x29c1	0.04495
153	0xa990	-0.04346
154	0x2992	0.04352
155	0xae65	-0.0999
156	0x9471	-0.001084
157	0x3127	0.161
158	0x3122	0.1604
159	0xa9eb	-0.04623
160	0xa8a7	-0.03635
161	0x2021	0.008064
162	0x249a	0.01797
163	0x21db	0.01144
164	0xa994	-0.04358
165	0x2c6c	0.0691
166	0x2c22	0.0646
167	0xa1fb	-0.01168
168	0x202a	0.00813
169	0x3040	0.1328
170	0x2ef4	0.10864
171	0x2bb2	0.06012
172	0xa344	-0.01419
173	0xacab	-0.07294
174	0x3001	0.1251
175	0xad82	-0.08606
176	0x2ebe	0.10535
177	0xa86a	-0.0345
178	0xa064	-0.008575
179	0x2fb8	0.1206
180	0x2b4a	0.05695
181	0xa9b5	-0.0446
182	0x2e4d	0.09845
183	0x2f86	0.11755
184	0xa934	-0.04065
185	0x28cd	0.0375
186	0xa7d6	-0.03061
187	0x2ca3	0.07245
188	0x1f4d	0.00713
189	0x30a5	0.1451
190	0xa786	-0.02939
191	0xa8a1	-0.03616
192	0xab43	-0.05673
193	0x9d92	-0.00544
194	0xaa45	-0.04898
195	0x2599	0.02187
196	0x2efb	0.1091
197	0x274c	0.0285
198	0x905d	-0.0005326
199	0xa292	-0.01283
200	0xa85d	-0.0341
201	0x27e8	0.03088
202	0xa35b	-0.014366
203	0x28b9	0.0369
204	0xa5a0	-0.02197
205	0x2da1	0.08795
206	0xa019	-0.008
207	0x9cf6	-0.004845
208	0xa8f7	-0.0388
209	0xa9b5	-0.0446
210	0xa512	-0.0198
211	0x281a	0.03204
212	0xac36	-0.0658
213	0x9a4f	-0.00308
214	0xa884	-0.03528
215	0x2b50	0.05713
216	0xb055	-0.1354
217	0xb0c4	-0.1489
218	0xaca6	-0.07263
219	0x98d6	-0.002361
220	0xa73a	-0.02823
221	0xac67	-0.0688
222	0xa591	-0.02174
223	0x2ce8	0.07666
224	0xadcc	-0.0906
225	0x28be	0.03705
226	0x2d05	0.0784
227	0x2c26	0.0648
228	0x183e	0.002071
229	0x2b1c	0.05554
230	0xaaca	-0.05304
231	0x215d	0.010475
232	0x2b2f	0.05612
233	0x2615	0.02376
234	0xa9f2	-0.04645
235	0xb0fb	-0.1556
236	0x2efd	0.1092
237	0x1c85	0.004414
238	0x9d98	-0.005463
239	0x2509	0.01967
240	0xa45a	-0.017
241	0x2b5d	0.05753
242	0xa9c3	-0.045
243	0x2071	0.008675
244	0xa4a8	-0.01819
245	0xaab0	-0.05225
246	0xad9d	-0.0877
247	0x21b6	0.011154
248	0x29b6	0.04462
249	0x238d	0.01475
250	0xa8ac	-0.0365
251	0xa6b4	-0.02618
252	0x2273	0.012596
253	0x26f1	0.02711
254	0x2511	0.01979
255	0x20e1	0.00953
